results_init_based_on_train/theta_adjoint_fkpp_sam2001_ratio0p75_noise60_dim4_False_ord2_L2T_0_reg10p0_iter10_weightedFalse.npz (npz, 1146 bytes, 2 tensors)

A_opt f8 [4, 4]
0	0x3f9a6e9871f47474	0.025812513308768506
1	0xbf8f332f46f4c1c3	-0.01523434577265526
2	0xbf723091ee7e623e	-0.004440851254820686
3	0xbf6dfa4b153d3889	-0.0036593882049720844
4	0x3f43bd24ca14e619	0.0006023816714907953
5	0xbf84fc362e7b7557	-0.010246680539632775
6	0x3f91a92e3c3c4572	0.017246935297469297
7	0x3f83dd30a74f76a7	0.009699230295093854
8	0xbf5d8f481053f542	-0.0018041805026876722
9	0x3f9f005edead1c3f	0.030274851170613678
10	0xbfa2f3d001e572d7	-0.03701639197490685
11	0xbf8ff4b63301eab1	-0.015603469306588154
12	0x3f8de6ce9bbba6f5	0.014600385787577145
13	0x3f8fe852518ca3be	0.015579836953820588
14	0xbfa50251e3b32c42	-0.04103332428493235
15	0xbf96a784f87fe5c1	-0.02212341086121739

H_opt f8 [4, 16]
0	0xbfa6826fbeb53d0d	-0.0439639015481764
1	0x3fa83c99591ff666	0.04733733380269882
2	0x3f7f56f982e70c38	0.007651304868377777
3	0x3f84822726d37bf4	0.010013872024897431
4	0x3fa83c99591ff666	0.04733733380269882
5	0xbf9c502fc26c1f2c	-0.02764963745269637
6	0xbf7654ab5723d63b	-0.005451840685272875
7	0xbf6ce707c1192a0b	-0.0035281325770359965
8	0x3f7f56f982e70c38	0.007651304868377777
9	0xbf7654ab5723d63b	-0.005451840685272875
10	0x3f62bf080cc9f216	0.0022883565164291226
11	0x3f529580289a2a74	0.0011342765377856641
12	0x3f84822726d37bf4	0.010013872024897431
13	0xbf6ce707c1192a0b	-0.0035281325770359965
14	0x3f529580289a2a74	0.0011342765377856641
15	0x3f2b83affb26f3b9	0.0002099182434686356
16	0xbf94d2ace38363b7	-0.020334912668520135
17	0x3f9101eebf7f9788	0.01660893482030404
18	0xbf84c037da7089fd	-0.010132252076862075
19	0xbf9bc69ccdae79c3	-0.027124834111981643
20	0x3f9101eebf7f9788	0.01660893482030404
21	0xbfa1f4719314a591	-0.03506808205049617
22	0x3fa04a39946f1735	0.03181629120767441
23	0x3f815b0e3fa0d424	0.008474456135539717
24	0xbf84c037da7089fd	-0.010132252076862075
25	0x3fa04a39946f1735	0.03181629120767441
26	0xbf9a67a648811944	-0.025786016631422784
27	0xbf77aa53e2671f22	-0.0057776715024784615
28	0xbf9bc69ccdae79c3	-0.027124834111981643
29	0x3f815b0e3fa0d424	0.008474456135539717
30	0xbf77aa53e2671f22	-0.0057776715024784615
31	0xbf707b73d668a7e2	-0.004023983469361144
32	0xbf78450146998a58	-0.005925183280484157
33	0xbf9e92f90cbf0ff6	-0.029857531931852997
34	0x3fa50a957995f28c	0.04109637364579041
35	0x3fa47d889000da9a	0.040020244196445634
36	0xbf9e92f90cbf0ff6	-0.029857531931852997
37	0x3fbb825b4555cb02	0.10745783274414225
38	0xbfb08cf247395167	-0.06465067137589174
39	0xbf905cfa1bd463bc	-0.015979679058634608
40	0x3fa50a957995f28c	0.04109637364579041
41	0xbfb08cf247395167	-0.06465067137589174
42	0x3fab16c29992e1f5	0.052908021208569446
43	0x3f86c509b6e2f700	0.011118007558589493
44	0x3fa47d889000da9a	0.040020244196445634
45	0xbf905cfa1bd463bc	-0.015979679058634608
46	0x3f86c509b6e2f700	0.011118007558589493
47	0x3f81006b11bcdeef	0.008301578978361117
48	0x3f71b4ca123e0adc	0.004322804776054592
49	0xbf74d6da84b915e2	-0.005087712848369704
50	0x3fa3892a3db84d6b	0.0381558609334672
51	0x3faf9eecde971794	0.061759378596931175
52	0xbf74d6da84b915e2	-0.005087712848369704
53	0x3fb1f651eede2c13	0.0701647957013594
54	0xbfb3e77f569be823	-0.07775112022855572
55	0xbf9650696a7130d6	-0.02179112159892401
56	0x3fa3892a3db84d6b	0.0381558609334672
57	0xbfb3e77f569be823	-0.07775112022855572
58	0x3fadaeee11b2745f	0.05797523466137799
59	0x3f8bd238a0952a8d	0.013584558868975161
60	0x3faf9eecde971794	0.061759378596931175
61	0xbf9650696a7130d6	-0.02179112159892401
62	0x3f8bd238a0952a8d	0.013584558868975161
63	0x3f81fd290780e23c	0.008783646146285233
