results_init_based_on_train/theta_adjoint_burgers_sam10000_ratio0p5_noise100_dim3_False_ord2_L2T_0_reg0_iter10_weightedFalse.npz (npz, 794 bytes, 2 tensors)

A_opt f8 [3, 3]
-0.06707518091849594 0.019876771822209413 -0.045892214698575365 -0.13044204319230024 0.023990004780730496 -0.10244949964738256 -0.06090795019643863 0.01711895129185884
-0.04448793573399865
00000000: af10 6bcc d62b b1bf acad b493 935a 943f
00000010: daf3 8a32 2f7f a7bf 8c65 c42a 53b2 c0bf
00000020: 9242 dbf7 d590 983f 5e21 7a62 213a babf
00000030: b8f8 51ac 532f afbf 49eb c25f a187 913f
00000040: dd90 166a 1fc7 a6bf

H_opt f8 [3, 9]
-0.021259525806553763 0.11332285557591859 -0.44774135814704197 0.11332285557591859 -0.49784014621057154 -0.05002003339300124 -0.44774135814704197 -0.05002003339300124
-0.00889562490275048 0.10045565498079077 -0.017652352695608085 -0.9986730848324276 -0.017652352695608085 -1.1578865340880709 -0.1177559082969423 -0.9986730848324276
-0.1177559082969423 -0.021118030088551672 0.048855734947136346 0.03837060914706227 -0.43497693666283044 0.03837060914706227 -0.4871514542855843 -0.0498394021114602
-0.43497693666283044 -0.0498394021114602 -0.008724144261285679
00000000: 3e3d 45a0 0ec5 95bf b880 9606 ba02 bd3f
00000010: 08b9 935e cba7 dcbf b880 9606 ba02 bd3f
00000020: 8d0e a7ea 9cdc dfbf 85b2 22cf 399c a9bf
00000030: 08b9 935e cba7 dcbf 85b2 22cf 399c a9bf
00000040: 6243 4790 de37 82bf c73b d738 76b7 b93f
00000050: 49b2 1956 7513 92bf d105 d841 21f5 efbf
00000060: 49b2 1956 7513 92bf 5f31 c607 b486 f2bf
00000070: facf 0b4f 4025 bebf d105 d841 21f5 efbf
00000080: facf 0b4f 4025 bebf 0f58 5802 f79f 95bf
00000090: 5fd6 a36f 9e03 a93f 1316 d4fe 4fa5 a33f
000000a0: acca 5e81 a9d6 dbbf 1316 d4fe 4fa5 a33f
000000b0: 43bf 164b 7d2d dfbf 8fe8 3dd4 8c84 a9bf
000000c0: acca 5e81 a9d6 dbbf 8fe8 3dd4 8c84 a9bf
000000d0: 516e 4dd2 f6dd 81bf
