results_init_based_on_train/theta_adjoint_burgers_sam1000_ratio0p5_noise140_dim4_False_ord2_L2T_0_reg0_iter10_weightedFalse.npz (npz, 1146 bytes, 2 tensors)

A_opt f8 [4, 4]
00000000: b842 a0c5 001c 72bf 54a7 fdd4 4428 77bf
00000010: 0dc4 4af1 ba08 87bf 8724 296d 0cfa ac3f
00000020: 0695 57b7 fd5b 5e3f 6892 cdab d72e 82bf
00000030: 6c4f 4fcb 8e3d 9fbf c66d cfc3 f467 9a3f
00000040: 337b 6ede c24b 7e3f 41e7 3f77 dc75 8f3f
00000050: 0b18 46e4 0d31 94bf 8d8e 61e9 2f38 c1bf
00000060: c20b d065 439a 91bf b50e d701 65f2 78bf
00000070: 6af2 7b50 6452 c13f 3523 9399 6a53 953f
-0.0044212370066964365 -0.005653637766821113 -0.011247120369576558 0.05659521896866076 0.0018529870698043584 -0.008878407412063541 -0.030508261832280878 0.0257871860993484
0.007396470266853683 0.015361521138391178 -0.019718377168395345 -0.13452719588814369 -0.017190030182984158 -0.006090540465666973 0.13532689981356621 0.020826020835360743

H_opt f8 [4, 16]
00000000: 18d5 8d6f 045d aa3f 1ec7 e6ee 26f7 b53f
00000010: da36 2a4f fe21 bc3f 4e92 92d8 a16b e0bf
00000020: 1ec7 e6ee 26f7 b53f 95eb e446 4c03 b6bf
00000030: 2622 4874 caf3 8cbf 5941 1d68 eb56 70bf
00000040: da36 2a4f fe21 bc3f 2622 4874 caf3 8cbf
00000050: d08b 63e4 17e2 6fbf 2876 8904 5f17 503f
00000060: 4e92 92d8 a16b e0bf 5941 1d68 eb56 70bf
00000070: 2876 8904 5f17 503f 546f 7bab 785f 84bf
00000080: b39a a8b8 ea94 b5bf 7b11 7d75 a62d bb3f
00000090: 9823 a24c 78d9 d13f dffd e5b8 9359 cebf
000000a0: 7b11 7d75 a62d bb3f 0def 082d ebef b9bf
000000b0: f55a 422b 3ef4 7bbf d890 3738 56f8 713f
000000c0: 9823 a24c 78d9 d13f f55a 422b 3ef4 7bbf
000000d0: 58fd 47e6 f07a 79bf c16f bc10 1260 553f
000000e0: dffd e5b8 9359 cebf d890 3738 56f8 713f
000000f0: c16f bc10 1260 553f 515d 3ac1 8f18 73bf
00000100: 84db 7f36 6f65 913f 278f 07af f923 c2bf
00000110: b096 e422 7b1e c43f 408d 3d1a 1f6c f33f
00000120: 278f 07af f923 c2bf 12f2 2f7b 3dae c13f
00000130: ad6e 23d5 8530 a13f 7042 2f40 3205 953f
00000140: b096 e422 7b1e c43f ad6e 23d5 8530 a13f
00000150: 5e45 8667 a271 523f d431 1065 72b7 48bf
00000160: 408d 3d1a 1f6c f33f 7042 2f40 3205 953f
00000170: d431 1065 72b7 48bf e3f0 2ca6 76a5 973f
00000180: 508f 3f8e 7e74 bc3f b553 ce74 47cf a23f
00000190: 5d28 9f5d 0d7c f3bf af39 3916 feaa c5bf
000001a0: b553 ce74 47cf a23f 1691 169a 5fa2 c83f
000001b0: e3ad c75b 8df0 79bf 186b c480 fb3c a1bf
000001c0: 5d28 9f5d 0d7c f3bf e3ad c75b 8df0 79bf
000001d0: cb96 f4d1 6419 9a3f 80a3 b538 73bb 68bf
000001e0: af39 3916 feaa c5bf 186b c480 fb3c a1bf
000001f0: 80a3 b538 73bb 68bf 50c2 e54f 3920 4a3f
0.05149091588729443 0.08580249149852334 0.10989369805084995 -0.513138697617771 0.08580249149852334 -0.08598782282653723 -0.014136869119298966 -0.003989142949493229
0.10989369805084995 -0.014136869119298966 -0.003891989387839946 0.0009821346194692857 -0.513138697617771 -0.003989142949493229 0.0009821346194692857 -0.009947722180576747
-0.08430354126231059 0.10616531723377946 0.27889831050611624 -0.23710867431871827 0.10616531723377946 -0.10131711816296392 -0.006824725005705847 0.00438722304850022
0.27889831050611624 -0.006824725005705847 -0.006220761312305832 0.0013046432895355983 -0.23710867431871827 0.00438722304850022 0.0013046432895355983 -0.004662095586943708
0.016988504125005757 -0.1417228798519485 0.1571802063346488 1.2138968491570523 -0.1417228798519485 0.13812988772396345 0.03357332445895387 0.020527634780423687
0.1571802063346488 0.03357332445895387 0.0011257253628154866 -0.0007542904442075457 1.2138968491570523 0.020527634780423687 -0.0007542904442075457 0.023092130558539103
0.11115256283625041 0.036737664230862256 -1.21778618403416 -0.16928077778943648 0.036737664230862256 0.19245524429164423 -0.00633292406244432 -0.03366838404527622
-1.21778618403416 -0.00633292406244432 0.02548749476877425 -0.003019070665392254 -0.16928077778943648 -0.03366838404527622 -0.003019070665392254 0.0007972984165417005
