data/theta_adjoint_burgers_sam1000_noise20_dim4_True_ord2_L2T_1_reg0_iter10_weightedTrue.npz (npz, 1146 bytes, 2 tensors)

A_opt f8 [4, 4]
000000 e5 4b 38 b0 06 98 a0 bf cf b8 b9 a5 92 c6 91 3f
       -0.032409867297381635 0.017359057774620375
000010 0d 6f 5d 1d 9a 7f 87 3f 5c 17 96 ac 8b c3 f3 be
       0.01147385027041239 -1.8848276146530562e-05
000020 c6 10 ba c2 1c 42 ac 3f 83 fe fc 94 1a 75 98 bf
       0.05519189717327459 -0.023884215682527198
000030 7a a5 36 97 80 de 9a bf 9e dc 28 23 04 36 01 3f
       -0.02623940394338351 3.282737852255381e-05
000040 3d e5 e6 ad 6b 34 8e 3f 11 fc 10 28 1e 69 71 3f
       0.014748421902242565 0.004250638769973684
000050 08 2d 8a f4 8e 8e 83 bf 89 a5 f1 ee b1 a0 b8 3e
       -0.009549252355347551 1.467926207055584e-06
000060 11 cc 0e 48 dd 41 76 bf 55 5b ae 4d 9c d3 5c 3f
       -0.0054339069183013825 0.0017594362641141965
000070 6d 6c 78 ed 5d 8a 64 3f 44 d9 65 6b fb 2f c8 be
       0.002507384731655507 -2.8833663591701e-06

H_opt f8 [4, 16]
000000 a1 dc 1e bb 70 c7 a8 3f ee ae 61 1a cd d9 c0 bf
       0.04839660915552569 -0.1316467646423613
000010 50 69 8e 3b 2f 38 bd bf cf 52 5a 70 09 90 48 3f
       -0.11413855747233481 0.0007495924080154983
000020 ee ae 61 1a cd d9 c0 bf ee a2 7b 73 c2 4b c2 3f
       -0.1316467646423613 0.14293699873748927
000030 e6 c8 d2 8b 51 4c 8e bf 69 e0 3e 12 fe fb 61 3f
       -0.014794003562517987 0.0021953546838311866
000040 50 69 8e 3b 2f 38 bd bf e6 c8 d2 8b 51 4c 8e bf
       -0.11413855747233481 -0.014794003562517987
000050 af 22 1f d4 44 ce 4c 3f 33 7d eb 43 d6 da 33 bf
       0.0008790813519619823 -0.0003029606922790473
000060 cf 52 5a 70 09 90 48 3f 69 e0 3e 12 fe fb 61 3f
       0.0007495924080154983 0.0021953546838311866
000070 33 7d eb 43 d6 da 33 bf e9 d8 a0 7f 9d 7d 25 3f
       -0.0003029606922790473 0.00016396091069887452
000080 02 87 1a 00 fb 3a b5 3f 5c 15 be e0 89 fe c2 3f
       0.08293122055559013 0.14839290117030657
000090 03 2a f0 b5 88 cf d0 3f 88 89 4e c0 5a 4f 58 bf
       0.26266687171360575 -0.001483763336388751
0000a0 5c 15 be e0 89 fe c2 3f 99 a6 4b bf cb 26 d7 bf
       0.14839290117030657 -0.3617429130668853
0000b0 18 3a 30 05 67 41 a3 3f ce b1 a6 b3 04 3d 74 bf
       0.03760835588774486 -0.004941004148730289
0000c0 03 2a f0 b5 88 cf d0 3f 18 3a 30 05 67 41 a3 3f
       0.26266687171360575 0.03760835588774486
0000d0 96 48 68 2d c5 32 6a bf 85 9b 7a c4 6c f3 49 3f
       -0.003198037254386564 0.0007919579592979708
0000e0 88 89 4e c0 5a 4f 58 bf ce b1 a6 b3 04 3d 74 bf
       -0.001483763336388751 -0.004941004148730289
0000f0 85 9b 7a c4 6c f3 49 3f da aa cb a0 34 48 35 bf
       0.0007919579592979708 -0.00032473835817252233
000100 49 12 50 f6 89 f8 60 bf 62 0c c4 5d 02 ff b1 bf
       -0.0020716375897811595 -0.07029738225178186
000110 04 95 d6 d3 55 c3 b8 3f 9f e9 61 70 e4 59 35 bf
       0.0967305795844205 -0.0003257925712955248
000120 62 0c c4 5d 02 ff b1 bf 35 d8 6f a7 bf 61 c5 bf
       -0.07029738225178186 -0.16704555202130825
000130 55 ac 60 74 61 20 91 3f 5d cb 1a 8a 29 7c 5c bf
       0.016725084999205404 -0.0017385869654559995
000140 04 95 d6 d3 55 c3 b8 3f 55 ac 60 74 61 20 91 3f
       0.0967305795844205 0.016725084999205404
000150 7d be 56 6d 01 7e 63 bf 7f fc 74 cb 99 1b 38 3f
       -0.0023794200776235384 0.0003678560710404579
000160 9f e9 61 70 e4 59 35 bf 5d cb 1a 8a 29 7c 5c bf
       -0.0003257925712955248 -0.0017385869654559995
000170 7f fc 74 cb 99 1b 38 3f f2 50 42 6f 17 09 1b bf
       0.0003678560710404579 -0.00010313230069619922
000180 ea 84 03 8a 1a ea 40 3f d1 ac 4c 2c 62 5b 82 bf
       0.0005161885819938959 -0.008963362671769922
000190 85 ee 49 71 6b bc 99 bf 18 e2 71 b5 ca cf 21 3f
       -0.02513282660446105 0.00013589238617207964
0001a0 d1 ac 4c 2c 62 5b 82 bf 43 85 6b c4 f8 8e a2 3f
       -0.008963362671769922 0.03624703786568741
0001b0 20 53 11 df 66 7c 6e bf f4 3f 59 92 9b c4 3e 3f
       -0.003721428795453355 0.0004694824041040484
0001c0 85 ee 49 71 6b bc 99 bf 20 53 11 df 66 7c 6e bf
       -0.02513282660446105 -0.003721428795453355
0001d0 78 64 6a f0 53 d6 37 3f 30 c4 be 2f 8e b4 14 bf
       0.0003637270860195672 -7.89844306712396e-05
0001e0 18 e2 71 b5 ca cf 21 3f f4 3f 59 92 9b c4 3e 3f
       0.00013589238617207964 0.0004694824041040484
0001f0 30 c4 be 2f 8e b4 14 bf a9 87 37 01 67 72 00 3f
       -7.89844306712396e-05 3.136994214593344e-05
