results/theta_adjoint_fkpp_sam2001_ratio0p75_noise200_dim3_True_ord2_L2T_0_reg0p1_iter10_weightedTrue.npz (npz, 794 bytes, 2 tensors)

A_opt f8 [3, 3]
0	0x3fa0c54b0a3d95d7	0.0327552270889943
1	0xbf9509276433521e	-0.02054273175311227
2	0xbf67ef46ae6ed492	-0.002921712922637606
3	0x3f916002516c361c	0.016967807979247337
4	0xbf9b05f477403344	-0.02638990381096852
5	0x3f8f60e918cbd5a8	0.015321560925694325
6	0xbfa840aa6f8a015e	-0.047368360629664194
7	0x3fb585b4e4682fd9	0.08407145096151626
8	0xbfa8d46c7a2700f8	-0.048495664511849

H_opt f8 [3, 9]
0	0xbfa4714ba04ce960	-0.039926875417637175
1	0x3fb200c2c9da8975	0.07032411029880399
2	0x3f9920dfdddc7d24	0.024539468685472646
3	0x3fb200c2c9da8975	0.07032411029880399
4	0xbf9a7e261196444f	-0.025871844123291073
5	0x3f8371188785e6d8	0.009493056903682115
6	0x3f9920dfdddc7d24	0.024539468685472646
7	0x3f8371188785e6d8	0.009493056903682115
8	0xbf839dc243b201f1	-0.009578244868181126
9	0xbf94666a050d6103	-0.019921928938260624
10	0x3f9438707472c841	0.019746548755115837
11	0xbfa477cdab598ca4	-0.0399765273730506
12	0x3f9438707472c841	0.019746548755115837
13	0xbfb79d8e025e8f93	-0.09224784429403447
14	0x3f89e30f54846727	0.012640113608131621
15	0xbfa477cdab598ca4	-0.0399765273730506
16	0x3f89e30f54846727	0.012640113608131621
17	0xbf9ac5ffe31d4fca	-0.026145933377236287
18	0xbf92ff1feed9cd7a	-0.01855134864167727
19	0xbfb3025dff59fc17	-0.07425487026374387
20	0x3fc06a24a0c0a00f	0.12823922967186305
21	0xbfb3025dff59fc17	-0.07425487026374387
22	0x3fd279d4579acefd	0.28868588023327374
23	0xbfa87762d4c68b5a	-0.047785843347148485
24	0x3fc06a24a0c0a00f	0.12823922967186305
25	0xbfa87762d4c68b5a	-0.047785843347148485
26	0x3fb4f3d0297c457d	0.08184529316738139
