results/theta_adjoint_fkpp_sam2001_ratio0p75_noise0_dim5_True_ord2_L2_0_reg1p0_iter10_weightedTrue.npz (npz, 1706 bytes, 2 tensors)

A_opt f8 [5, 5]
00000000: fb72 b28c 8e38 d73f 0ca9 a031 24ff a53f
00000010: 8d5d 33d9 e7f0 c8bf ffce 5c35 a09e cabf
00000020: 7805 b5ec 00c1 b53f 0f11 bd53 80f4 b93f
00000030: 9839 f92f a659 c73f 8577 a0eb 72e0 c8bf
00000040: 708b 3c42 f557 b3bf 7c93 36b0 da62 b2bf
00000050: 3710 9d48 3b49 a2bf 8fd3 4984 ece0 943f
00000060: 3528 60da dbb1 b2bf 21bb ce68 57d6 aa3f
00000070: 5838 ae88 5cb7 a2bf 1c4c ed3d e9a2 a9bf
00000080: f6c9 5f8f b26f a8bf 7f70 898f 2ff2 b53f
00000090: 60b4 52f1 e016 a6bf 2b4e 5d07 07ed a4bf
000000a0: fc82 c496 6010 b6bf ad5e cb03 5ff3 b6bf
000000b0: 7902 1102 1a25 b43f 8ce1 c809 e433 aa3f
000000c0: d51d ce4c 168d babf
0.36282695522258707 0.04296219926648534 -0.19485185723781875 -0.20796587567894417 0.08497625140173237 0.10138704342267978 0.18242337553460852 -0.19434963708129885
-0.07556088320829502 -0.071820896168516 -0.03571496259112943 0.02038926656173917 -0.07302640992580296 0.05241654543293906 -0.03655518692458831 -0.050071038064423784
-0.047727184297304534 0.08572671179121193 -0.0431433004936046 -0.040870875977500574 -0.0861873977742213 -0.08965104906689687 0.07869112539720814 0.05117714518968616
-0.10371531844258837

H_opt f8 [5, 25]
00000000: 604d 533c 5ebb 9cbf f2ee 37ee afc9 51bf
00000010: ade9 c501 f6dd 9b3f 9321 eab3 e87c 6e3f
00000020: 60e2 812f 6a9a af3f f2ee 37ee afc9 51bf
00000030: 21da 275d 98fa aebf b496 9818 1824 863f
00000040: 668c 9ebf 16bf 94bf 10e3 bf8e 0308 98bf
00000050: ade9 c501 f6dd 9b3f b496 9818 1824 863f
00000060: 2a0c d999 2e5b b63f 1ccc a067 b2d6 873f
00000070: b134 d1cf 9290 76bf 9321 eab3 e87c 6e3f
00000080: 668c 9ebf 16bf 94bf 1ccc a067 b2d6 873f
00000090: e586 485b 257f 9d3f 2985 e5c9 02ca 89bf
000000a0: 60e2 812f 6a9a af3f 10e3 bf8e 0308 98bf
000000b0: b134 d1cf 9290 76bf 2985 e5c9 02ca 89bf
000000c0: 8b49 dec8 9b38 b53f 0faf 98fb 9c5a 793f
000000d0: d0bd 6f74 88e3 a83f f372 1007 6358 963f
000000e0: 4dc1 884c 5805 a2bf 7c96 273b 4ca1 af3f
000000f0: d0bd 6f74 88e3 a83f ad49 33ed 4bfa b73f
00000100: 9134 e5a3 22a9 453f 28a3 d152 c8fa a5bf
00000110: 408e 9a4d c3ab 91bf f372 1007 6358 963f
00000120: 9134 e5a3 22a9 453f 49fd 9c2a 5241 c03f
00000130: 8f02 e914 31c9 8cbf 258b 906c 5042 85bf
00000140: 4dc1 884c 5805 a2bf 28a3 d152 c8fa a5bf
00000150: 8f02 e914 31c9 8cbf 239e 3c67 401d 813f
00000160: afeb 00c9 2ac9 963f 7c96 273b 4ca1 af3f
00000170: 408e 9a4d c3ab 91bf 258b 906c 5042 85bf
00000180: afeb 00c9 2ac9 963f 405e 29dd 4a89 b23f
00000190: dd38 712e 41b5 90bf f1b6 70bb 99b2 9c3f
000001a0: 0971 6734 d8a4 ab3f 567f aa88 a852 b1bf
000001b0: 31e3 e661 f958 613f f1b6 70bb 99b2 9c3f
000001c0: 5ffd cb50 1637 c63f 095d e37c 4ea6 ba3f
000001d0: 2ae2 a147 6dfa abbf 0cee 6c43 2ab7 8fbf
000001e0: 0971 6734 d8a4 ab3f 095d e37c 4ea6 ba3f
000001f0: 383d 45cd e468 c33f 563c faf1 8508 a2bf
00000200: eca2 f495 65a2 74bf 567f aa88 a852 b1bf
00000210: 2ae2 a147 6dfa abbf 563c faf1 8508 a2bf
00000220: 23f5 4aa4 1a9f 6b3f 0a03 cf08 4533 903f
00000230: 31e3 e661 f958 613f 0cee 6c43 2ab7 8fbf
00000240: eca2 f495 65a2 74bf 0a03 cf08 4533 903f
00000250: 29cf 5a87 b295 bc3f 4488 91ad c9aa 6fbf
00000260: cd33 7b72 0d46 70bf 0bda 9aa6 3f88 a3bf
00000270: 5067 7f13 a035 b73f d3b4 f305 dbf3 9d3f
00000280: cd33 7b72 0d46 70bf fc02 46fa 861f b5bf
00000290: 6bf3 e273 60bb bdbf eaeb caba e429 be3f
000002a0: 9a9c b0ef 1ef3 b53f 0bda 9aa6 3f88 a3bf
000002b0: 6bf3 e273 60bb bdbf c84d a26f 4810 d2bf
000002c0: a037 c406 86c8 ba3f 58ce 4e6d a11d 723f
000002d0: 5067 7f13 a035 b73f eaeb caba e429 be3f
000002e0: a037 c406 86c8 ba3f 0e5a f830 dd39 1e3f
000002f0: 7b92 e205 fc20 7c3f d3b4 f305 dbf3 9d3f
00000300: 9a9c b0ef 1ef3 b53f 58ce 4e6d a11d 723f
00000310: 7b92 e205 fc20 7c3f e8e4 e037 567a bcbf
00000320: e766 3b9f 5c4f a3bf 252e ac76 b490 9abf
00000330: 0c83 1d8e a8ef 5bbf 6172 bb65 e19b a43f
00000340: 20ea 66b8 b239 a43f 252e ac76 b490 9abf
00000350: 410f 5cac f914 93bf 01ad 4813 dca7 95bf
00000360: 9b6d 46df 814d bd3f f61a a0f8 5ad7 cb3f
00000370: 0c83 1d8e a8ef 5bbf 01ad 4813 dca7 95bf
00000380: 4615 79db 82bf d0bf 2944 5489 4f77 cc3f
00000390: ad98 e440 2191 bc3f 6172 bb65 e19b a43f
000003a0: 9b6d 46df 814d bd3f 2944 5489 4f77 cc3f
000003b0: 4ee4 c5da b228 cabf fcbb bcd8 12c0 903f
000003c0: 20ea 66b8 b239 a43f f61a a0f8 5ad7 cb3f
000003d0: ad98 e440 2191 bc3f fcbb bcd8 12c0 903f
000003e0: 6246 27f4 e077 acbf
-0.02805850260922449 -0.001085683638733789 0.027213901384564632 0.0037216706253426295 0.06172496633457025 -0.001085683638733789 -0.06050563943056298 0.010811031580554832
-0.020260196156993614 -0.023468070590726475 0.027213901384564632 0.010811031580554832 0.08732882743883921 0.011639970576743201 -0.005508969768084502 0.0037216706253426295
-0.020260196156993614 0.011639970576743201 0.028805335709086406 -0.012592336450952661 0.06172496633457025 -0.023468070590726475 -0.005508969768084502 -0.012592336450952661
0.08289502767573802 0.006189931119972915 0.04861093922942994 0.02182154398552689 -0.03519702848677984 0.06177747938253916 0.04861093922942994 0.09366297284149168
0.0006610316411667251 -0.04292894373867845 -0.017256785975986455 0.02182154398552689 0.0006610316411667251 0.12699343758320428 -0.01405561776221134 -0.010380390465859765
-0.03519702848677984 -0.04292894373867845 -0.01405561776221134 0.00835657420209574 0.02225176669910994 0.06177747938253916 -0.017256785975986455 -0.010380390465859765
0.02225176669910994 0.07240741633847225 -0.016316431483851857 0.028025056901404836 0.053992039105397245 -0.06766751610348129 0.0021176214933941386 0.028025056901404836
0.17355612702520326 0.10410013722445312 -0.05464498042505668 -0.015486078436530291 0.053992039105397245 0.10410013722445312 0.15163860342952673 -0.03522127703501414
-0.005037686175719296 -0.06766751610348129 -0.05464498042505668 -0.03522127703501414 0.0033717651698156477 0.015820578253399588 0.0021176214933941386 -0.015486078436530291
-0.005037686175719296 0.015820578253399588 0.11165920071180992 -0.0038656176589464703 -0.003973057296843896 -0.03814886959792226 0.09066200710313166 0.02925054763629904
-0.003973057296843896 -0.08251231775467355 -0.11614039258252055 0.11782674370162707 0.08574097968868202 -0.03814886959792226 -0.11614039258252055 -0.282243832604959
0.10462224641034235 0.004422789167552198 0.09066200710313166 0.11782674370162707 0.10462224641034235 0.0001153031591843783 0.006867393936918926 0.02925054763629904
0.08574097968868202 0.004422789167552198 0.006867393936918926 -0.11124171127530114 -0.03771485751867747 -0.025942630522918137 -0.0017050882383601888 0.04025177351806942
0.039502701768885595 -0.025942630522918137 -0.01863470186709937 -0.021148146321292142 0.11446391774227609 0.2175096239081637 -0.0017050882383601888 -0.021148146321292142
-0.2616889136591748 0.2223910732796253 0.11158950647640849 0.04025177351806942 0.11446391774227609 0.2223910732796253 -0.2043670242526638 0.01635770271166946
0.039502701768885595 0.2175096239081637 0.11158950647640849 0.01635770271166946 -0.05560210209263229
