results/theta_adjoint_fkpp_sam2001_ratio0p75_noise180_dim4_True_ord2_L2T_2_reg0p01_iter10_weightedTrue.npz (npz, 1146 bytes, 2 tensors)

A_opt f8 [4, 4]
00000000: 153a 9025 4ffd a03f 9232 2618 a993 94bf
00000010: 053f b54e bb55 69bf 0646 c341 f11b 023f
00000020: 646d 7378 694d 843f 945d b1c6 2235 81bf
00000030: 4910 cd54 1439 613f 452a 83bb 0c70 10bf
00000040: 3ccb c075 99e4 93bf 15b8 e7b2 9759 903f
00000050: 3e37 af63 93bc 3cbf 37dc da39 3dca 023f
00000060: 11d4 593b 557d 963f a44d f966 3169 8bbf
00000070: d052 e0e9 8179 70bf 8e04 2440 f823 123f
0.03318259557282858 -0.020094530199957612 -0.0030926378582661917 3.4540462566245335e-05 0.00991327666127146 -0.008402129830001916 0.002102412900429261 -6.270482743101723e-05
-0.01942672520835774 0.015966768545631355 -0.00043848608373485757 3.5839074582204684e-05 0.021962482211581206 -0.01338423343182777 -0.00402212855808122 6.920054150684666e-05

H_opt f8 [4, 16]
00000000: 68b6 c5c7 bd47 a6bf a69e 14e7 18dc b13f
00000010: a20d fb7f 4fb7 983f 5dff f99f e800 3bbf
00000020: a69e 14e7 18dc b13f 6d2b 7398 cedc 98bf
00000030: 00a5 9c6f f0e7 803f a505 0ef8 1f1a 2bbf
00000040: a20d fb7f 4fb7 983f 00a5 9c6f f0e7 803f
00000050: c34a 480c eaeb 7fbf cfe2 87c9 35af f13e
00000060: 5dff f99f e800 3bbf a505 0ef8 1f1a 2bbf
00000070: cfe2 87c9 35af f13e a74e 4669 1f4d 75bf
00000080: 338c c4ca cb21 95bf ece3 79e2 af65 973f
00000090: 134c 1113 ea20 70bf 90e3 9630 a5e5 233f
000000a0: ece3 79e2 af65 973f be79 a83b 91f3 93bf
000000b0: 4164 a7a2 a0d7 823f 9cd4 e6fc 4447 2ebf
000000c0: 134c 1113 ea20 70bf 4164 a7a2 a0d7 823f
000000d0: ad75 00f0 4899 76bf 3dcb ad15 94e4 063f
000000e0: 90e3 9630 a5e5 233f 9cd4 e6fc 4447 2ebf
000000f0: 3dcb ad15 94e4 063f 1a8e 38e1 490e 60bf
00000100: c0d1 b7c7 d2c6 68bf ac1f d08b 7432 abbf
00000110: ebb9 7cde 0864 7ebf e510 d6f3 1b48 0a3f
00000120: ac1f d08b 7432 abbf d380 5200 e59a 9b3f
00000130: 97ab e44f 352e 86bf 2837 742b 1a4f 313f
00000140: ebb9 7cde 0864 7ebf 97ab e44f 352e 86bf
00000150: 3dd1 bc1f dded 7e3f 0d90 0375 8f70 01bf
00000160: e510 d6f3 1b48 0a3f 2837 742b 1a4f 313f
00000170: 0d90 0375 8f70 01bf 66c3 2132 3564 6e3f
00000180: c425 00ec 396c 2cbf 676f 7ad9 b955 aa3f
00000190: 3d0b 7816 35d5 983f b5b4 8ada 15b5 3dbf
000001a0: 676f 7ad9 b955 aa3f 1946 89aa 35eb 84bf
000001b0: 6bd8 4be2 c8ce 5e3f ae7d 2bd7 3c96 05bf
000001c0: 3d0b 7816 35d5 983f 6bd8 4be2 c8ce 5e3f
000001d0: ee5d 22d3 bfce 69bf 3b67 fbb9 35ce 06bf
000001e0: b5b4 8ada 15b5 3dbf ae7d 2bd7 3c96 05bf
000001f0: 3b67 fbb9 35ce 06bf d4d2 e71b f947 6cbf
-0.043516092907208315 0.06976466790785682 0.024136774240799526 -0.00041204146689465486 0.06976466790785682 -0.024279811911394434 0.008254888921856551 -0.0002067722344030579
0.024136774240799526 0.008254888921856551 -0.007793344736017618 1.6865171888344126e-05 -0.00041204146689465486 -0.0002067722344030579 1.6865171888344126e-05 -0.005200503063310136
-0.020636734248125243 0.022848842809683065 -0.003937639573524459 0.00015180245854453907 0.022848842809683065 -0.019483823076478883 0.009200339282800953 -0.00023100583207528037
-0.003937639573524459 0.009200339282800953 -0.00551727763379743 4.366471212948482e-05 0.00015180245854453907 -0.00023100583207528037 4.366471212948482e-05 -0.001959938332008593
-0.0030244938659455822 -0.053119318072332916 -0.007419619221578059 5.012831978049181e-05 -0.053119318072332916 0.0269580632635787 -0.010830322743080418 0.00026411427411764327
-0.007419619221578059 -0.010830322743080418 0.007551063313986636 -3.326356693536545e-05 5.012831978049181e-05 0.00026411427411764327 -3.326356693536545e-05 0.0037098921757707124
-0.0002168484406868521 0.05143528728259988 0.02425082158698476 -0.0004532984117229897 0.05143528728259988 -0.010214251772739978 0.001880356002570883 -4.1173679070412444e-05
0.02425082158698476 0.001880356002570883 -0.00315034356851717 -4.349805317156596e-05 -0.0004532984117229897 -4.1173679070412444e-05 -4.349805317156596e-05 -0.0034522881899142575
