results/theta_opinf_burgers_sam1000_ratio0p5_noise0_dim3_False_ord6_L2_1_reg1p0_iter10_weightedFalse.npz (npz, 802 bytes, 2 tensors)

A_opinf f8 [3, 3]
0.5639218775468628 -4.749940884354877 10.529313457439562 1.3047549693291287 -9.644613653913192 18.757053356706063 5.1590781106211985 -21.326111331805077
40.15182013523962
00000000: 9401 b2e4 a50b e23f 37f3 d080 f0ff 12c0
00000010: 3b12 6a2c 020f 2540 53fe 28bf 46e0 f43f
00000020: 7539 04cd 0a4a 23c0 2b61 b03f cec1 3240
00000030: 9482 4a5f e5a2 1440 33f5 4008 7c53 35c0
00000040: 3edd 99d7 6e13 4440

H_opinf f8 [3, 9]
0.04204195602657092 0.07863453757704057 -0.004068192022586954 0.07863453757704057 1.036282319274553 0.10127754034453125 -0.004068192022586954 0.10127754034453125
0.22529157642289968 -0.08078860407186698 0.03200167975124358 0.0676556018206822 0.03200167975124358 2.156413150617392 0.31626018343298506 0.0676556018206822
0.31626018343298506 0.8837910857024297 0.14581326820873436 -0.34518298845880396 0.0411696808402322 -0.34518298845880396 3.5315529548081925 0.5714985159068746
0.0411696808402322 0.5714985159068746 1.3726276507807855
00000000: f252 63f4 8586 a53f b3be 3a9f 6421 b43f
00000010: 3bc2 0dfb cea9 70bf b3be 3a9f 6421 b43f
00000020: d650 ebc4 9c94 f03f 755d 992b 53ed b93f
00000030: 3bc2 0dfb cea9 70bf 755d 992b 53ed b93f
00000040: 557b 66b8 5ad6 cc3f 2bcf 60dc 8fae b4bf
00000050: 51b6 e52f 8662 a03f f005 36a5 e051 b13f
00000060: 51b6 e52f 8662 a03f 3687 b489 5540 0140
00000070: d1c8 375a 9b3d d43f f005 36a5 e051 b13f
00000080: d1c8 375a 9b3d d43f 19d3 323e 0448 ec3f
00000090: 12c3 2359 02aa c23f 1f3b a463 7a17 d6bf
000000a0: 0053 9741 3114 a53f 1f3b a463 7a17 d6bf
000000b0: 63f2 e7d5 9e40 0c40 c00a 7141 b749 e23f
000000c0: 0053 9741 3114 a53f c00a 7141 b749 e23f
000000d0: 4105 5b69 48f6 f53f
