results/theta_adjoint_burgers_sam1000_ratio0p5_noise40_dim5_False_ord2_L2T_0_reg1p0_iter10_weightedFalse.npz (npz, 1706 bytes, 2 tensors)

A_opt f8 [5, 5]
00000000: 568b 6d95 880d aabf bc71 5f4c aec4 94bf
00000010: 6c69 9101 f326 84bf d66e 9882 346c 41bf
00000020: c6ae 8314 2a56 adbf 50f5 4f38 9bb7 afbf
00000030: 3d9d 1ebf e1d1 98bf 91aa a79b b7c9 93bf
00000040: d429 77c2 2833 963f 442b ca00 3927 a3bf
00000050: abcb ba40 c800 8b3f 1ee5 c4a4 461e 823f
00000060: 92bb 4726 68f9 72bf 1a89 ecc8 0c3b b1bf
00000070: c310 bf92 d2f3 8cbf 071b 9e8e 96ea 7ebf
00000080: e2e6 330c 23e6 78bf 38fe bb95 9551 923f
00000090: 69da 1e41 f28f 82bf c633 b4b3 a190 b6bf
000000a0: 8fa4 e579 56c6 abbf 0bde e9df 8903 86bf
000000b0: b290 313a ebd2 76bf 7a64 d91e 13d9 bd3f
000000c0: 6451 3583 0eff 4fbf
-0.0508845026404489 -0.020281527911593975 -0.009839914784767166 -0.0005316978833351481 -0.05729800701541658 -0.06194768011480767 -0.02423813561440834 -0.019324177623199438
0.021679531926375464 -0.03740862021103067 0.013185085750000733 0.008846809295038723 -0.004632384142026507 -0.06730728059168137 -0.014136929610579668 -0.007547939408943056
-0.006078850655507147 0.017889344467219653 -0.009063618290253221 -0.08814440381338703 -0.05424757230759624 -0.010748936792182048 -0.005572241646493991 0.11659354689744986
-0.0009764500486349301

H_opt f8 [5, 25]
00000000: aee8 b7a3 54af a13f be17 9245 d4cb c13f
00000010: e689 26e7 db5b b73f be24 3c44 d5be 693f
00000020: 3f76 0f03 db82 e03f be17 9245 d4cb c13f
00000030: 99e7 7f68 74ec c03f 6895 7223 7f8c 543f
00000040: 997c eb61 3adc 7c3f e2d6 d1ab 437b 703f
00000050: e689 26e7 db5b b73f 6895 7223 7f8c 543f
00000060: 7294 e961 a464 4abf d20a 140b 5397 51bf
00000070: 9510 c7a6 3606 503f be24 3c44 d5be 693f
00000080: 997c eb61 3adc 7c3f d20a 140b 5397 51bf
00000090: ba90 e69f 8007 573f 49b0 61b8 89f3 4dbf
000000a0: 3f76 0f03 db82 e03f e2d6 d1ab 437b 703f
000000b0: 9510 c7a6 3606 503f 49b0 61b8 89f3 4dbf
000000c0: 8b9d c409 6da3 34bf ba63 d535 a2ba adbf
000000d0: 7e45 ba32 fa2e c33f ee38 37a3 fb59 c83f
000000e0: af62 b62a 57cc c8bf ed77 16ae 1592 d53f
000000f0: 7e45 ba32 fa2e c33f ccd9 483f 2a3e d13f
00000100: ca98 74a9 0a63 92bf 4e0e cbc2 e834 f3be
00000110: a129 c32a 4b6a 493f ee38 37a3 fb59 c83f
00000120: ca98 74a9 0a63 92bf d94c 7708 f3c3 463f
00000130: 14ff 2ce7 8255 4fbf f46e ad4e 24f2 503f
00000140: af62 b62a 57cc c8bf 4e0e cbc2 e834 f3be
00000150: 14ff 2ce7 8255 4fbf 040c d954 7376 613f
00000160: e7e7 a77c d6aa 46bf ed77 16ae 1592 d53f
00000170: a129 c32a 4b6a 493f f46e ad4e 24f2 503f
00000180: e7e7 a77c d6aa 46bf b109 9f98 6151 563f
00000190: d39e d4bd 46ee 9abf 7ccf 853b 032f b3bf
000001a0: e71f 3134 302e a73f 918e 30a2 451e e33f
000001b0: 3d5f 6e3d 7d15 c03f 7ccf 853b 032f b3bf
000001c0: 01d4 37dc 4224 993f d9f0 7047 23d5 66bf
000001d0: ffd2 d487 fce0 903f b3d0 df9d f3fc 823f
000001e0: e71f 3134 302e a73f d9f0 7047 23d5 66bf
000001f0: cba5 7209 8409 623f 2b41 a02c aae1 443f
00000200: c735 327d c792 52bf 918e 30a2 451e e33f
00000210: ffd2 d487 fce0 903f 2b41 a02c aae1 443f
00000220: 9664 a842 2da8 55bf 6ebc e50b 9501 2fbf
00000230: 3d5f 6e3d 7d15 c03f b3d0 df9d f3fc 823f
00000240: c735 327d c792 52bf 6ebc e50b 9501 2fbf
00000250: ec2c 4ef6 002b 66bf ef94 c0d9 3839 8cbf
00000260: 3e03 7a8e 74a8 ae3f 9f33 f914 7e0b c8bf
00000270: 3f60 35bd 70e8 b33f 3cd4 d965 bc70 e93f
00000280: 3e03 7a8e 74a8 ae3f 1a98 3dfb 12eb ccbf
00000290: 7d30 a994 675d a83f ca17 0fbb 5a9a 883f
000002a0: 5341 edc7 145b 753f 9f33 f914 7e0b c8bf
000002b0: 7d30 a994 675d a83f f799 9d8a 9eb0 76bf
000002c0: a827 5740 b53f 5bbf 1187 c61c cfc6 573f
000002d0: 3f60 35bd 70e8 b33f ca17 0fbb 5a9a 883f
000002e0: a827 5740 b53f 5bbf 2601 cac2 61b4 133f
000002f0: 77e4 141c af8e 53bf 3cd4 d965 bc70 e93f
00000300: 5341 edc7 145b 753f 1187 c61c cfc6 573f
00000310: 77e4 141c af8e 53bf 5589 bc60 fb7b 66bf
00000320: 3e0f 50a4 8591 b23f bc3c 92d9 44d8 9d3f
00000330: 772f 1358 56ee ad3f 9749 2ed4 1194 f0bf
00000340: 630c 367a 974e 883f bc3c 92d9 44d8 9d3f
00000350: 264a 3642 ee61 c83f de38 8a98 7243 89bf
00000360: 2b86 7ad9 eeec 99bf 91aa bbab 6205 8cbf
00000370: 772f 1358 56ee ad3f de38 8a98 7243 89bf
00000380: 405d a6cf 41cb 4dbf 8703 17bd 1bef 59bf
00000390: 9be8 fd09 0800 633f 9749 2ed4 1194 f0bf
000003a0: 2b86 7ad9 eeec 99bf 8703 17bd 1bef 59bf
000003b0: b837 45b2 157d 693f 1527 0f82 0311 1abf
000003c0: 630c 367a 974e 883f 91aa bbab 6205 8cbf
000003d0: 9be8 fd09 0800 633f 1527 0f82 0311 1abf
000003e0: 47e4 6e09 ffe9 733f
0.03454079149737886 0.13903287312512974 0.0912454070408227 0.0031427541124498795 0.515973573663082 0.13903287312512974 0.13221602537651903 0.0012542001329987843
0.007045963341368333 0.004023804035673458 0.0912454070408227 0.0012542001329987843 -0.0008054545067578535 -0.0010736762017706136 0.0009780439096270012 0.0031427541124498795
0.007045963341368333 -0.0010736762017706136 0.0014055973148084226 -0.0009140417539703706 0.515973573663082 0.004023804035673458 0.0009780439096270012 -0.0009140417539703706
-0.0003149167257725175 -0.0580645266260897 0.14987113453802786 0.190246061988041 -0.19373597703522225 0.3370413017345289 0.14987113453802786 0.269419252206174
-0.017955938904514558 -1.8316914224282472e-05 0.0007756106401981996 0.190246061988041 -0.017955938904514558 0.0006947457013048122 -0.0009562386679604373 0.0010342936099822482
-0.19373597703522225 -1.8316914224282472e-05 -0.0009562386679604373 0.002131676918709415 -0.0006917521762368457 0.3370413017345289 0.0007756106401981996 0.0010342936099822482
-0.0006917521762368457 0.0013621762359298068 -0.026299577080094515 -0.07493610575857973 0.045274263735848135 0.5974453132407281 0.12565579890792292 -0.07493610575857973
0.024552387896580544 -0.0027871789020804502 0.016483255186545694 0.00927152944130003 0.045274263735848135 -0.0027871789020804502 0.0022018030973256267 0.000637252896241979
-0.0011336277137020555 0.5974453132407281 0.016483255186545694 0.000637252896241979 -0.0013218347545545287 -0.00023655838408440398 0.12565579890792292 0.00927152944130003
-0.0011336277137020555 -0.00023655838408440398 -0.002706052664910188 -0.013781017442008962 0.05987896193710761 -0.1878507234963793 0.07776550883625165 0.7950117100978171
0.05987896193710761 -0.22592389361960913 0.04758762063701825 0.01201315768583901 0.005213814902916464 -0.1878507234963793 0.04758762063701825 -0.005539531042677562
-0.0016631383926885932 0.0014512083608697083 0.07776550883625165 0.01201315768583901 -0.0016631383926885932 7.516714749478525e-05 -0.0011936864905932856 0.7950117100978171
0.005213814902916464 0.0014512083608697083 -0.0011936864905932856 -0.0027446660732419006 0.07253299008885691 0.0291453130526491 0.05845899415143568 -1.0361498153984934
0.011868651787841416 0.0291453130526491 0.19048860772143533 -0.012335677414082754 -0.025317890189972807 -0.013682146898152754 0.05845899415143568 -0.012335677414082754
-0.0009092398971003793 -0.001582886780269828 0.0023193509113613293 -1.0361498153984934 -0.025317890189972807 -0.001582886780269828 0.0031114028699112638 -9.943565284156423e-05
0.011868651787841416 -0.013682146898152754 0.0023193509113613293 -9.943565284156423e-05 0.004861828077019465
