results/theta_opinf_burgers_sam1000_ratio0p5_useValFalse_noise40_iter10_smoothTrue_dim4_ord2_L2T_1_reg10p0_weightedTrue.npz (npz, 1154 bytes, 2 tensors)

A_opinf f8 [4, 4]
000000 16 12 f5 b1 fe 55 96 bf d3 00 55 58 ce d3 90 bf
       -0.021812419520999958 -0.016432975903854462
000010 be e9 d0 40 d2 a6 7a 3f 79 75 63 d0 22 23 ec 3e
       0.006506749440684021 1.341688631522718e-05
000020 1a d4 29 74 89 1f a0 bf be a7 0d 03 43 8a 95 bf
       -0.031490607671834606 -0.021035239278184063
000030 f4 c2 69 f7 89 31 8f 3f 42 a5 95 05 ad 59 ff 3e
       0.015231206763219408 2.9897972443936447e-05
000040 68 66 a3 55 23 85 81 3f d3 4c a9 aa 49 eb 74 bf
       0.008554721880886976 -0.0051072003939964415
000050 5a af e4 93 67 c2 7c bf 91 29 33 00 b4 86 ea be
       -0.007021336174414328 -1.2648670241328915e-05
000060 0f 76 20 56 5e e9 78 3f 0e 2c da 70 cf 6a 69 3f
       0.006081932546320625 0.0031026889399234986
000070 e6 de d4 72 e8 c4 65 bf 83 8f 8b 7c 65 be d5 be
       -0.002657369614691751 -5.1841106560624235e-06

H_opinf f8 [4, 16]
000000 7b c4 f1 9a 42 ac a7 3f e9 fb dd 4a 3b a7 c1 3f
       0.04623611585055528 0.13791600375768034
000010 77 46 5a aa 03 4f b0 bf 55 a4 de 99 30 1e 2c bf
       -0.06370566281318611 -0.00021452277445391474
000020 e9 fb dd 4a 3b a7 c1 3f 0d 7c 2a 7e 53 ba ab 3f
       0.13791600375768034 0.054155930663220976
000030 51 4b 26 6b 6b 30 79 3f 2a 5b a7 6d f4 27 10 bf
       0.006149692157481138 -6.163052913819565e-05
000040 77 46 5a aa 03 4f b0 bf 51 4b 26 6b 6b 30 79 3f
       -0.06370566281318611 0.006149692157481138
000050 8f b0 af 97 dd d8 36 bf f9 74 56 10 15 1c 12 bf
       -0.000348619556176607 -6.90830093703249e-05
000060 55 a4 de 99 30 1e 2c bf 2a 5b a7 6d f4 27 10 bf
       -0.00021452277445391474 -6.163052913819565e-05
000070 f9 74 56 10 15 1c 12 bf f3 6e f9 59 55 23 3f 3f
       -6.90830093703249e-05 0.00047512849594054314
000080 e2 f0 21 dc d5 e4 b4 bf 87 ca 0d 67 54 55 c4 3f
       -0.08161675094919787 0.15885405570914576
000090 64 e5 8b 30 f3 53 c3 bf de d2 9d 55 02 43 3f bf
       -0.15099944944794708 -0.00047701651566649055
0000a0 87 ca 0d 67 54 55 c4 3f 4e 37 73 3a 1a 3e c5 3f
       0.15885405570914576 0.16595771650320973
0000b0 0c ed 0b 47 58 1a 93 3f 4c 62 7b 58 dc 1e 21 bf
       0.018655185066546884 -0.00013061942831062363
0000c0 64 e5 8b 30 f3 53 c3 bf 0c ed 0b 47 58 1a 93 3f
       -0.15099944944794708 0.018655185066546884
0000d0 db 67 58 0e a6 0d 44 3f 88 a4 69 b7 ac c9 25 bf
       0.0006119786091318651 -0.00016622765879795534
0000e0 de d2 9d 55 02 43 3f bf 4c 62 7b 58 dc 1e 21 bf
       -0.00047701651566649055 -0.00013061942831062363
0000f0 88 a4 69 b7 ac c9 25 bf 62 80 90 e8 b3 ad 47 3f
       -0.00016622765879795534 0.0007226112803699997
000100 a4 09 0b 6d 4b 9d 62 bf 09 fc 1b 26 8d 68 b1 3f
       -0.002272269550617172 0.06800157719042955
000110 72 fe 67 6a b6 2c b2 3f 45 75 03 a9 08 5a 2a 3f
       0.07099475953872927 0.00020104747500841228
000120 09 fc 1b 26 8d 68 b1 3f d3 0e de 10 86 f3 bd bf
       0.06800157719042955 -0.11699712669183819
000130 06 65 03 3f ec 1d 89 bf b9 24 fc d8 2f cf 09 3f
       -0.01226410453129968 4.922737855223833e-05
000140 72 fe 67 6a b6 2c b2 3f 06 65 03 3f ec 1d 89 bf
       0.07099475953872927 -0.01226410453129968
000150 e3 4f 28 d6 75 82 5d bf 85 7b cd 17 c2 0a 15 3f
       -0.0018011236903747666 8.026895188838034e-05
000160 45 75 03 a9 08 5a 2a 3f b9 24 fc d8 2f cf 09 3f
       0.00020104747500841228 4.922737855223833e-05
000170 85 7b cd 17 c2 0a 15 3f 07 f8 41 19 07 cd 1d bf
       8.026895188838034e-05 -0.00011368137194442416
000180 f7 d6 bd 6b dd 12 66 bf dd f3 eb cb 29 af 96 bf
       -0.00269454237234867 -0.022152569838897896
000190 b7 fd 6b 54 e4 03 9b 3f 71 b5 9c 8b 81 ad 15 3f
       0.026382033970546916 8.26940839970447e-05
0001a0 dd f3 eb cb 29 af 96 bf ed 5f de 26 d3 cd 9f bf
       -0.022152569838897896 -0.031058596846918297
0001b0 a5 19 45 e9 ad d7 6b bf 94 df cd 71 ca 80 f7 3e
       -0.003398742361386558 2.2414292391442403e-05
0001c0 b7 fd 6b 54 e4 03 9b 3f a5 19 45 e9 ad d7 6b bf
       0.026382033970546916 -0.003398742361386558
0001d0 be ee 2c 69 da b2 28 bf a2 5e 0d aa 7d 8a fe 3e
       -0.0001884357085034562 2.9126148209128657e-05
0001e0 71 b5 9c 8b 81 ad 15 3f 94 df cd 71 ca 80 f7 3e
       8.26940839970447e-05 2.2414292391442403e-05
0001f0 a2 5e 0d aa 7d 8a fe 3e 75 cd 43 5e 8c 8a 20 bf
       2.9126148209128657e-05 -0.00012619937400125026
