results/theta_adjoint_burgers_sam1000_ratio0p5_useValFalse_noise200_iter10_smoothTrue_dim4_ord2_L2T_0_reg1p0_weightedFalse.npz (npz, 1146 bytes, 2 tensors)

A_opt f8 [4, 4]
0	0xbf8a33df95d01023	-0.012794253119871318
1	0xbf9375a25165d249	-0.019003425806163574
2	0xbf95aa5ded7e1f23	-0.021157710667039652
3	0x3f99566b6194ec83	0.02474372656909597
4	0x3f6810acf105f14b	0.0029376390231716
5	0xbf92aed865f8cdbe	-0.01824510691058178
6	0x3fa05a03f38b5a39	0.031936763267073016
7	0x3f8dd9e7c2be199f	0.014575777655193188
8	0xbf87e5358184bfd7	-0.011667650237171685
9	0x3f86b06920d000ec	0.011078664125307523
10	0x3f67e4c89595ddd7	0.002916709676977307
11	0xbfbbf7801625935b	-0.10924530544941773
12	0x3fa3913cab86aac7	0.03821744531463405
13	0x3f92ca27d0e7578f	0.018349287152737367
14	0x3fbe322f8fb46631	0.11795327433028359
15	0xbf5a614d6d12fd3d	-0.0016101127733206399

H_opt f8 [4, 16]
0	0x3fb0d6f7eaf3effb	0.06578015791086493
1	0x3fc935c98684043c	0.1969539553465739
2	0x3fc8fb5be887d9be	0.1951708684352535
3	0xbfccca11b049c603	-0.2249166594297521
4	0x3fc935c98684043c	0.1969539553465739
5	0xbfaaaf6e731f222d	-0.05211968570035128
6	0x3f71d395ac7577b6	0.00435217348362287
7	0xbf7ffabafb60a690	-0.007807474516121751
8	0x3fc8fb5be887d9be	0.1951708684352535
9	0x3f71d395ac7577b6	0.00435217348362287
10	0x3f93c785e7fc4f1a	0.01931580761363625
11	0xbf5ffd416e4e8208	-0.001952470681523379
12	0xbfccca11b049c603	-0.2249166594297521
13	0xbf7ffabafb60a690	-0.007807474516121751
14	0xbf5ffd416e4e8208	-0.001952470681523379
15	0xbf87d60d9598cd56	-0.01163874256881196
16	0xbfce8061d7a1329c	-0.2382929137114801
17	0x3fc2b926b2b130a8	0.14627536511614392
18	0xbfd2b498786c5558	-0.2922726799018469
19	0xbfc0a0202fe3b726	-0.12988664949755807
20	0x3fc2b926b2b130a8	0.14627536511614392
21	0xbfa834935d821d17	-0.04727612034280975
22	0xbf79577e8d2e5f0b	-0.006186956731560898
23	0xbf661d4ca6037850	-0.0026995179215268186
24	0xbfd2b498786c5558	-0.2922726799018469
25	0xbf79577e8d2e5f0b	-0.006186956731560898
26	0x3f612b3d55244047	0.0020958135511435524
27	0x3f760a6a38d39827	0.005381026200870698
28	0xbfc0a0202fe3b726	-0.12988664949755807
29	0xbf661d4ca6037850	-0.0026995179215268186
30	0x3f760a6a38d39827	0.005381026200870698
31	0xbf64170b6ce52c49	-0.002452394786052224
32	0x3fd615c0e519d48c	0.34507772801527703
33	0xbfc84574e8aa7bbb	-0.1896196495117389
34	0xbfa0ed65ca83d1d2	-0.033061200114307035
35	0x3fef948751ba9c71	0.986880931498389
36	0xbfc84574e8aa7bbb	-0.1896196495117389
37	0x3fa9e7cff86ab97a	0.05059671313698551
38	0xbf70076c9a723aaf	-0.003913330299055203
39	0x3fa046046671d617	0.03178418875260663
40	0xbfa0ed65ca83d1d2	-0.033061200114307035
41	0xbf70076c9a723aaf	-0.003913330299055203
42	0xbfa07856d66f70df	-0.03216811530703167
43	0xbf768eb9b88fda68	-0.00550720736736441
44	0x3fef948751ba9c71	0.986880931498389
45	0x3fa046046671d617	0.03178418875260663
46	0xbf768eb9b88fda68	-0.00550720736736441
47	0x3fb4dad2aee91eb9	0.08146397371558124
48	0xbfe12882366a5c9b	-0.536194902687288
49	0xbfc84a6e3bfc47bf	-0.18977144173601165
50	0xbff1477ec34b40cd	-1.0799548748655525
51	0x3f95b6719094f8e0	0.021203779649334176
52	0xbfc84a6e3bfc47bf	-0.18977144173601165
53	0x3fa5cb96984fbb90	0.04256888016958904
54	0xbf973e06f078b24e	-0.02269755213471774
55	0x3f73fa6cc10b2348	0.004877495594606547
56	0xbff1477ec34b40cd	-1.0799548748655525
57	0xbf973e06f078b24e	-0.02269755213471774
58	0xbfa34301758cd85c	-0.03762058792055775
59	0x3f91f9dac9085164	0.017554682273912006
60	0x3f95b6719094f8e0	0.021203779649334176
61	0x3f73fa6cc10b2348	0.004877495594606547
62	0x3f91f9dac9085164	0.017554682273912006
63	0xbf6352c2920d16c2	-0.0023587990002934276
