results/theta_adjoint_burgers_sam1000_ratio0p5_useValTrue_noise60_iter10_smoothTrue_dim3_ord6_L2T_1_reg1p0_weightedFalse.npz (npz, 794 bytes, 2 tensors)

A_opt f8 [3, 3]
00000000: c4c2 d0bf 1af9 88bf 7775 4210 b2e7 91bf
00000010: a15d 4fba e976 29bf ccd5 5646 d899 86bf
00000020: 5a29 6966 3994 99bf f724 abb2 e7be 11bf
00000030: f70a 6b9b cfd4 68bf 7fa3 681c 5fd6 88bf
00000040: 3268 9a7c 80e2 3ebf
-0.012193879107230805 -0.017485410921485447 -0.00019427874681697286 -0.011035623213369393 -0.024979493022592926 -6.769456073664805e-05 -0.0030311636759007238 -0.012127631239381874
-0.0004712642372425329

H_opt f8 [3, 9]
00000000: 269f 2826 5234 aa3f 4993 3fcd f8fc c33f
00000010: aa6d 56c1 e191 623f 4993 3fcd f8fc c33f
00000020: 7af8 ad8c 0daf a7bf 2bb0 7059 6a32 72bf
00000030: aa6d 56c1 e191 623f 2bb0 7059 6a32 72bf
00000040: 3d1b 1ec8 c172 5bbf 75f5 9a65 4a80 b0bf
00000050: 389f e2fa 9f62 ca3f e640 bf9c 40ae 51bf
00000060: 389f e2fa 9f62 ca3f be2b d060 1e27 b1bf
00000070: adf7 0596 d5ee 76bf e640 bf9c 40ae 51bf
00000080: adf7 0596 d5ee 76bf dd54 1f69 7b2f 65bf
00000090: 177c f189 44e2 a4bf 6ab5 f2b6 45a9 bb3f
000000a0: 7298 80fa 9ded 7e3f 6ab5 f2b6 45a9 bb3f
000000b0: c0cb bcd3 3818 a5bf 933f 7b4e b851 6cbf
000000c0: 7298 80fa 9ded 7e3f 933f 7b4e b851 6cbf
000000d0: 50aa 3b1b b6fa 56bf
0.05118042674831562 0.15615758916751535 0.002266827514814292 0.15615758916751535 -0.04625742285041752 -0.004442611148117985 0.002266827514814292 -0.004442611148117985
-0.001675309410048078 -0.06445755940054261 0.20613479376083332 -0.001079142663901017 0.20613479376083332 -0.06700315345385285 -0.005598863907264756 -0.001079142663901017
-0.005598863907264756 -0.0025861177791549465 -0.04078878578069849 0.10805164066797138 0.007550828078853754 0.10805164066797138 -0.04120042404829105 -0.003456935857549534
0.007550828078853754 -0.003456935857549534 -0.001402547682057293
