results/theta_adjoint_burgers_sam10000_ratio0p5_noise40_dim5_False_ord2_L2T_2_reg10p0_iter10_weightedFalse.npz (npz, 1706 bytes, 2 tensors)

A_opt f8 [5, 5]
0	0xbf89647ac2c71b17	-0.012398680752892894
1	0x3f7485caa49f9723	0.005010406088308081
2	0xbf6a615b7d1b9b56	-0.003220251740333617
3	0xbec9bb7bdab6be6b	-3.0675361892480385e-06
4	0xbec61f949d64f6f2	-2.6373101988098788e-06
5	0x3f7d1e3b540f2fdc	0.007108909369843954
6	0xbf72cbe16a54b872	-0.004588966873866439
7	0x3f6683aca8cebea2	0.002748334145927193
8	0x3eb45759d9964982	1.2124308795586783e-06
9	0x3ec318911c06821f	2.276416324956351e-06
10	0xbf7a0d6b77b02e6e	-0.00636045436386788
11	0xbf3412def1dbdcfa	-0.0003063005732281823
12	0xbf6aa17fe6127b74	-0.0032508371374002035
13	0xbeadb11d05892235	-8.848860587130471e-07
14	0xbec646a4aeafe637	-2.6555002157174567e-06
15	0x3f6f9ac9032fd7b6	0.0038579870247259186
16	0xbf57608f70096621	-0.0014268303640591134
17	0x3f5e1b1bcb9f24b1	0.0018375178756165173
18	0x3ec288a01a857c0e	2.2093883737385353e-06
19	0x3ec05cbbfaa6ea83	1.950531403252966e-06
20	0xbf74a6b5ead6ee7f	-0.005041800131433071
21	0x3f40dfeba728cdc1	0.0005149746560334998
22	0xbf680171337e51ce	-0.002930375190724122
23	0xbed0a48cdb53a2e6	-3.9679466017148625e-06
24	0xbecabc9fb2c1ddfd	-3.187276339796295e-06

H_opt f8 [5, 25]
0	0xbfb2fb5ddd50041e	-0.07414805081499806
1	0x3fa8886e3489a375	0.04791588202790013
2	0xbfa06a72ce7f2135	-0.032062137324432895
3	0xbf141a053427b1f4	-7.668167840053209e-05
4	0xbf090dcd19ad885b	-4.7786542572551056e-05
5	0x3fa8886e3489a375	0.04791588202790013
6	0xbfa52703bc00d78b	-0.0413132826801493
7	0xbf6ee43e96864100	-0.0037709448262789325
8	0xbf34318ef3ddfbf7	-0.00030812969259125196
9	0xbf26a2a0e4241ef5	-0.0001726933861123586
10	0xbfa06a72ce7f2135	-0.032062137324432895
11	0xbf6ee43e96864100	-0.0037709448262789325
12	0xbf378eba6e7fcf22	-0.00035945941499381147
13	0xbf0686180232bba8	-4.296074646369742e-05
14	0xbef8a0e34674ad7b	-2.348753733120771e-05
15	0xbf141a053427b1f4	-7.668167840053209e-05
16	0xbf34318ef3ddfbf7	-0.00030812969259125196
17	0xbf0686180232bba8	-4.296074646369742e-05
18	0xbf159d85ba0ee231	-8.245590880918346e-05
19	0x3eaa723e86086882	7.88160161194264e-07
20	0xbf090dcd19ad885b	-4.7786542572551056e-05
21	0xbf26a2a0e4241ef5	-0.0001726933861123586
22	0xbef8a0e34674ad7b	-2.348753733120771e-05
23	0x3eaa723e86086882	7.88160161194264e-07
24	0xbf177d1d9aa9a7c5	-8.960240544700269e-05
25	0xbf8431648cc98493	-0.009859834238513698
26	0xbfa7fdf15d7c98c3	-0.046859305059386645
27	0x3f9cd42d417f00d1	0.028153140184941364
28	0x3f0308739335a97b	3.630259234451129e-05
29	0x3f0562da8b25cd5c	4.079083864185859e-05
30	0xbfa7fdf15d7c98c3	-0.046859305059386645
31	0x3fa082494f04ed28	0.03224400605764749
32	0x3f692c83e33f55dd	0.0030729843074179656
33	0x3f3162bb50d4f3e1	0.0002652842820969875
34	0x3f2350476bc0d24c	0.00014735099637310162
35	0x3f9cd42d417f00d1	0.028153140184941364
36	0x3f692c83e33f55dd	0.0030729843074179656
37	0x3f295c5303aa9ae7	0.00019348634107992717
38	0x3f02d32c8e75a867	3.590564466089755e-05
39	0x3ef41c1224050821	1.9178058438436397e-05
40	0x3f0308739335a97b	3.630259234451129e-05
41	0x3f3162bb50d4f3e1	0.0002652842820969875
42	0x3f02d32c8e75a867	3.590564466089755e-05
43	0x3f0ed8f9c5b01ca6	5.88370537216107e-05
44	0xbea92b59fd0e9b65	-7.501048405648068e-07
45	0x3f0562da8b25cd5c	4.079083864185859e-05
46	0x3f2350476bc0d24c	0.00014735099637310162
47	0x3ef41c1224050821	1.9178058438436397e-05
48	0xbea92b59fd0e9b65	-7.501048405648068e-07
49	0x3f1133a4d6a6510f	6.561940759858643e-05
50	0xbf816f2d6c6a0f85	-0.008512835379640435
51	0xbf931324bba616c6	-0.0186277141124467
52	0xbfa119d0b9b6d641	-0.03340008036631704
53	0xbef0be8287a1e215	-1.5968493677994274e-05
54	0xbf06965f0f0d3e4f	-4.308202358649078e-05
55	0xbf931324bba616c6	-0.0186277141124467
56	0xbfaba7c1963f50bf	-0.054014253226030366
57	0xbf75c3558fb4a41f	-0.005313238357566723
58	0xbf33714db8e0c771	-0.0002966704131522813
59	0xbf25cfc6d44665de	-0.00016640951265571488
60	0xbfa119d0b9b6d641	-0.03340008036631704
61	0xbf75c3558fb4a41f	-0.005313238357566723
62	0xbf48f5926ed88966	-0.0007616963391153086
63	0xbf11158023c123e4	-6.517023661091432e-05
64	0xbf02815fe262cd41	-3.529619088862369e-05
65	0xbef0be8287a1e215	-1.5968493677994274e-05
66	0xbf33714db8e0c771	-0.0002966704131522813
67	0xbf11158023c123e4	-6.517023661091432e-05
68	0xbf0a9b2e2455c6b9	-5.074724735266767e-05
69	0x3e7ee0009e62ceba	1.1501837313376104e-07
70	0xbf06965f0f0d3e4f	-4.308202358649078e-05
71	0xbf25cfc6d44665de	-0.00016640951265571488
72	0xbf02815fe262cd41	-3.529619088862369e-05
73	0x3e7ee0009e62ceba	1.1501837313376104e-07
74	0xbf0e474d907185d2	-5.7751707623020614e-05
75	0xbf65cc21e53e8028	-0.00266081447803403
76	0xbf7f444184007f8f	-0.007633453293266159
77	0x3f9284656b6fd54f	0.01808317630999073
78	0x3f0854551bbaaf99	4.640469293568025e-05
79	0x3f0252fdb90e3999	3.495060730706045e-05
80	0xbf7f444184007f8f	-0.007633453293266159
81	0x3f9a45012a30eef2	0.02565385646833724
82	0x3f651d17a79bcdf8	0.0025773489004394766
83	0x3f2670f94419d521	0.00017121355817876444
84	0x3f1953023e34a41d	9.660435857895872e-05
85	0x3f9284656b6fd54f	0.01808317630999073
86	0x3f651d17a79bcdf8	0.0025773489004394766
87	0x3f32549c69a68869	0.00027970141095513004
88	0x3effa7e5d9da9705	3.018937206058279e-05
89	0x3ef1346471dfd288	1.640764013895399e-05
90	0x3f0854551bbaaf99	4.640469293568025e-05
91	0x3f2670f94419d521	0.00017121355817876444
92	0x3effa7e5d9da9705	3.018937206058279e-05
93	0x3f009e13bcf32606	3.169534431319777e-05
94	0xbe85241bc665db43	-1.5751308808281768e-07
95	0x3f0252fdb90e3999	3.495060730706045e-05
96	0x3f1953023e34a41d	9.660435857895872e-05
97	0x3ef1346471dfd288	1.640764013895399e-05
98	0xbe85241bc665db43	-1.5751308808281768e-07
99	0x3f02a6038910dfd9	3.5569174663796235e-05
100	0x3f747a3a1fa4c651	0.004999377293914601
101	0xbf6699a65756debc	-0.0027588127947771584
102	0xbf9de07fbbbb5f13	-0.02917670806240753
103	0xbf15dd561e9e8884	-8.340681202281998e-05
104	0xbf0e07913a5cba34	-5.72768397389855e-05
105	0xbf6699a65756debc	-0.0027588127947771584
106	0xbfa73c0b267d0ea0	-0.04537997097807289
107	0xbf72b418852a70a8	-0.004566283971737452
108	0xbf31f0f7630e9e21	-0.0002737621280694842
109	0xbf243e2c400c0d04	-0.00015444078601243455
110	0xbf9de07fbbbb5f13	-0.02917670806240753
111	0xbf72b418852a70a8	-0.004566283971737452
112	0xbf4360f0012f3dda	-0.0005913898370354901
113	0xbf0bfbc21cfb12bb	-5.337415825360433e-05
114	0xbefecdcc706b61a4	-2.9376888984385154e-05
115	0xbf15dd561e9e8884	-8.340681202281998e-05
116	0xbf31f0f7630e9e21	-0.0002737621280694842
117	0xbf0bfbc21cfb12bb	-5.337415825360433e-05
118	0xbf064bf509748eae	-4.2527594980049585e-05
119	0x3e76b56af1944713	8.459636226625589e-08
120	0xbf0e07913a5cba34	-5.72768397389855e-05
121	0xbf243e2c400c0d04	-0.00015444078601243455
122	0xbefecdcc706b61a4	-2.9376888984385154e-05
123	0x3e76b56af1944713	8.459636226625589e-08
124	0xbf09344d9f4cf151	-4.80734051166743e-05
