results/theta_adjoint_burgers_sam1000_ratio0p5_noise0_dim3_False_ord6_L2_1_reg0p01_iter10_weightedFalse.npz (npz, 794 bytes, 2 tensors)

A_opt f8 [3, 3]
00000000: a681 f88f cbd3 e13f cdf7 efd5 c801 13c0
00000010: a458 65b7 1204 2540 d2d5 bd47 1fc1 f63f
00000020: 6b2f 24d3 8547 23c0 2679 d35b 4bba 3240
00000030: ec58 0c56 053c 1440 b83b bb54 864d 35c0
00000040: bed5 2c1f c40a 4440
0.5571039020469939 -4.751742689868434 10.507955294724816 1.422148971786886 -9.639692876975195 18.72771238243981 5.058614105704901 -21.30283097811818
40.08411016167837

H_opt f8 [3, 9]
00000000: d109 b526 b550 cdbf 722e 2d27 7060 c93f
00000010: 1469 dff6 8997 b33f 722e 2d27 7060 c93f
00000020: 34f0 0c1f ee65 f13f 23c0 1ce2 e908 bc3f
00000030: 1469 dff6 8997 b33f 23c0 1ce2 e908 bc3f
00000040: 9373 f9ee 88a5 cc3f 907c 1e49 f5b3 02c0
00000050: bcae 5264 019c d33f 820d ee8a 896d ab3f
00000060: bcae 5264 019c d33f 7c6f d28a a229 0040
00000070: ef5b c6f9 874a d43f 820d ee8a 896d ab3f
00000080: ef5b c6f9 874a d43f 0eb9 f84d f71e ec3f
00000090: a9f7 1c22 20c8 f73f 8381 5407 13d1 ccbf
000000a0: 0634 d661 5182 b53f 8381 5407 13d1 ccbf
000000b0: d73e 423f 36db 0c40 4cb4 be2e 1b7a e23f
000000c0: 0634 d661 5182 b53f 4cb4 be2e 1b7a e23f
000000d0: 6824 0270 4bf2 f53f
-0.22902550115584444 0.19825555718340443 0.0765310504643007 0.19825555718340443 1.087385293284581 0.10951101084060659 0.0765310504643007 0.10951101084060659
0.22380172413513985 -2.3378701889446987 0.30639681622663395 0.05357007809564164 0.30639681622663395 2.0203295560331167 0.31704902069162605 0.05357007809564164
0.31704902069162605 0.8787800333864497 1.4863587696595266 -0.22513044221797082 0.08401974333374093 -0.22513044221797082 3.6070370618907464 0.5774055397975046
0.08401974333374093 0.5774055397975046 1.3716539740874172
