results/theta_adjoint_burgers_sam1000_ratio0p5_noise180_dim5_True_ord6_L2T_4_reg0_iter10_weightedTrue.npz (npz, 1706 bytes, 2 tensors)

A_opt f8 [5, 5]
-0.006003755796463469 0.003135406985382115 -1.2555854598361045e-05 -2.6341543637179633e-05 -1.0150801612498705e-05 -0.0023024800640939038 -0.0017803262100259817 2.5300222839522827e-05
9.384145259741208e-06 8.751115464967313e-08 4.2401052703542705e-05 0.00012264540713552985 1.3264166105902778e-06 4.47262281746761e-07 1.4100229431332389e-06 -0.0003904125191977241
-9.67064838293605e-05 3.6180808625877405e-07 -8.412204586345013e-07 -1.3859210337913968e-06 -0.0035346228770222607 -1.1239501278124643e-05 -2.9378660922403893e-06 8.36451923678388e-06
5.520064416726109e-06
00000000: 56a0 c8ec 6497 78bf 7d9b c7ce 6caf 693f
00000010: 6efe 1484 df54 eabe 0fc4 5c18 019f fbbe
00000020: 3b1f ef8c ab49 e5be 9a32 6692 a6dc 62bf
00000030: c11b 4ab6 3a2b 5dbf 2c77 2813 7a87 fa3e
00000040: 17ec 8d1a 13ae e33e 6895 7883 b87d 773e
00000050: 56e5 d113 f93a 063f cd48 7a06 4c13 203f
00000060: 1e14 937c ea40 b63e 8057 5a51 e803 9e3e
00000070: 9375 149f 00a8 b73e 5aba 7c00 0996 39bf
00000080: 028e cebd dc59 19bf f018 9dca d047 983e
00000090: 705e 015a 073a acbe dd90 b54a 7c40 b7be
000000a0: 5ed9 2235 a4f4 6cbf 16fc 0f4b 2992 e7be
000000b0: d239 f2f6 04a5 c8be 93d3 2bc5 aa8a e13e
000000c0: 55ea c8c0 1f27 d73e

H_opt f8 [5, 25]
0.07850275518387767 -0.05936091179823034 -0.0001753081223850989 0.0005752640002320451 0.0001372800264387435 -0.05936091179823034 -0.002594673619777871 0.00021274208720464433
-0.0002232421749440292 -4.864169408135003e-05 -0.0001753081223850989 0.00021274208720464433 0.001787751857586106 0.00033754199996683797 3.0354631951514275e-05 0.0005752640002320451
-0.0002232421749440292 0.00033754199996683797 0.001832293179621611 2.1999798650677663e-05 0.0001372800264387435 -4.864169408135003e-05 3.0354631951514275e-05 2.1999798650677663e-05
0.0017129995066942308 0.0651721408209628 0.03313168314610637 -0.00022257198046896307 -0.00024353350279347354 2.2374240466868897e-05 0.03313168314610637 0.005994958382115338
-9.673057936252374e-05 0.00014197700857358485 4.8418909649268626e-05 -0.00022257198046896307 -9.673057936252374e-05 7.024048016292779e-05 -0.00021964029009650187 1.105602146397171e-06
-0.00024353350279347354 0.00014197700857358485 -0.00021964029009650187 8.969886548618408e-05 4.749809081878879e-06 2.2374240466868897e-05 4.8418909649268626e-05 1.105602146397171e-06
4.749809081878879e-06 0.0001898841561210913 -0.0015040613617118784 -0.0028826309035199084 -9.430286808488374e-06 -1.894576231356335e-05 -3.067885557180587e-05 -0.0028826309035199084
-0.0005391919552323329 3.465857472563743e-05 -2.7337041658763254e-05 -1.1329117086467376e-05 -9.430286808488374e-06 3.465857472563743e-05 6.651741529805795e-06 2.2554804168708005e-05
-3.7172697703764255e-06 -1.894576231356335e-05 -2.7337041658763254e-05 2.2554804168708005e-05 5.828002866269106e-06 -1.8783505471528134e-06 -3.067885557180587e-05 -1.1329117086467376e-05
-3.7172697703764255e-06 -1.8783505471528134e-06 1.1965080082471733e-06 0.008043782151253839 0.002118000758578704 -1.2503224906436254e-05 2.1973717422561704e-05 3.0407530059636237e-05
0.002118000758578704 0.0006833767550745696 -2.2747449263998698e-05 2.0067841672605167e-05 7.960401039482423e-06 -1.2503224906436254e-05 -2.2747449263998698e-05 6.994179798261372e-05
-1.5775492864539844e-05 3.750374410877363e-07 2.1973717422561704e-05 2.0067841672605167e-05 -1.5775492864539844e-05 6.851279904577197e-05 -1.0437802197787697e-07 3.0407530059636237e-05
7.960401039482423e-06 3.750374410877363e-07 -1.0437802197787697e-07 7.069284720021125e-05 0.06740085849529266 -0.002446600868542016 0.00012088702840612155 -0.00020827387934833322
-8.77022354792095e-05 -0.002446600868542016 0.002483204477164431 2.388642974965132e-05 -1.618370988659028e-05 -4.428581407703898e-06 0.00012088702840612155 2.388642974965132e-05
0.0007111182653494682 2.712901049061428e-06 -1.8218741424621504e-05 -0.00020827387934833322 -1.618370988659028e-05 2.712901049061428e-06 0.0007155678090200762 -2.4084370854844892e-05
-8.77022354792095e-05 -4.428581407703898e-06 -1.8218741424621504e-05 -2.4084370854844892e-05 0.0007025610109093962
00000000: 4c20 29ae c118 b43f 6114 abad 8d64 aebf
00000010: b011 034e 5dfa 26bf 98e5 a508 aad9 423f
00000020: fc5d a972 5afe 213f 6114 abad 8d64 aebf
00000030: 5a57 e7ca 6c41 65bf 739b 329d 70e2 2b3f
00000040: e369 52ae c342 2dbf 05b8 e5e1 9380 09bf
00000050: b011 034e 5dfa 26bf 739b 329d 70e2 2b3f
00000060: cc9e bff0 5f4a 5d3f b288 d3d9 031f 363f
00000070: e9ce 996c 42d4 ff3e 98e5 a508 aad9 423f
00000080: e369 52ae c342 2dbf b288 d3d9 031f 363f
00000090: 8e45 1fd2 3105 5e3f f96a cda6 8611 f73e
000000a0: fc5d a972 5afe 213f 05b8 e5e1 9380 09bf
000000b0: e9ce 996c 42d4 ff3e f96a cda6 8611 f73e
000000c0: ed07 ff36 d710 5c3f 19b4 6f15 1faf b03f
000000d0: 40de 25cf a2f6 a03f 55e4 15c1 462c 2dbf
000000e0: 691d 26dc a0eb 2fbf e449 e518 0a76 f73e
000000f0: 40de 25cf a2f6 a03f 45b4 1263 2b8e 783f
00000100: 3919 15b3 7a5b 19bf 9565 9b37 f59b 223f
00000110: e210 4f11 ad62 093f 55e4 15c1 462c 2dbf
00000120: 3919 15b3 7a5b 19bf 8605 b842 c269 123f
00000130: e944 c7b9 e7c9 2cbf 938c 686a 868c b23e
00000140: 691d 26dc a0eb 2fbf 9565 9b37 f59b 223f
00000150: e944 c7b9 e7c9 2cbf a2c8 66c6 9683 173f
00000160: 41ec 2c94 11ec d33e e449 e518 0a76 f73e
00000170: e210 4f11 ad62 093f 938c 686a 868c b23e
00000180: 41ec 2c94 11ec d33e 40d0 2b7b 74e3 283f
00000190: e8cf 0597 7da4 58bf df35 a0ae 509d 67bf
000001a0: 0969 f9bf d8c6 e3be 289d 5fdf b6dd f3be
000001b0: 4aab 6c73 a515 00bf df35 a0ae 509d 67bf
000001c0: 07cc 30e8 11ab 41bf 5fc9 4d8f cb2b 023f
000001d0: 63d1 c332 3baa fcbe 361a 02ff 45c2 e7be
000001e0: 0969 f9bf d8c6 e3be 5fc9 4d8f cb2b 023f
000001f0: 30fe 0bca 40e6 db3e 9e9b 2157 82a6 f73e
00000200: 7f9f 05ab c62e cfbe 289d 5fdf b6dd f3be
00000210: 63d1 c332 3baa fcbe 9e9b 2157 82a6 f73e
00000220: fa5f c33a c571 d83e 41a8 8344 7483 bfbe
00000230: 4aab 6c73 a515 00bf 361a 02ff 45c2 e7be
00000240: 7f9f 05ab c62e cfbe 41a8 8344 7483 bfbe
00000250: 9067 c177 f612 b43e 1ece 342a 4279 803f
00000260: f542 b6ff c459 613f 941c 6b25 9e38 eabe
00000270: 8731 fc5c 860a f73e bdd5 f58d 75e2 ff3e
00000280: f542 b6ff c459 613f ec9b 2d68 9464 463f
00000290: 4bf9 7ccf 38da f7be efdf 3694 eb0a f53e
000002a0: f843 2630 b5b1 e03e 941c 6b25 9e38 eabe
000002b0: 4bf9 7ccf 38da f7be c907 99f0 b655 123f
000002c0: db53 6a9d b38a f0be 94b1 fb1b 182b 993e
000002d0: 8731 fc5c 860a f73e efdf 3694 eb0a f53e
000002e0: db53 6a9d b38a f0be 7e29 cfec d0f5 113f
000002f0: d69e e294 cd04 7cbe bdd5 f58d 75e2 ff3e
00000300: f843 2630 b5b1 e03e 94b1 fb1b 182b 993e
00000310: d69e e294 cd04 7cbe 5f28 fddd 1d88 123f
00000320: b9a8 f5c2 2e41 b13f 4fa4 efd6 e40a 64bf
00000330: 14ef 8455 97b0 1f3f 2805 3600 834c 2bbf
00000340: 8eee c3ee 98fd 16bf 4fa4 efd6 e40a 64bf
00000350: f534 9940 a857 643f c0bd 17f4 f60b f93e
00000360: 5fb8 3613 48f8 f0be 8c0f 2630 2793 d2be
00000370: 14ef 8455 97b0 1f3f c0bd 17f4 f60b f93e
00000380: bfe1 bcd8 4a4d 473f 292b cd1f e9c1 c63e
00000390: b715 a360 8e1a f3be 2805 3600 834c 2bbf
000003a0: 5fb8 3613 48f8 f0be 292b cd1f e9c1 c63e
000003b0: 1969 3d2b 9e72 473f 1155 d75c 1941 f9be
000003c0: 8eee c3ee 98fd 16bf 8c0f 2630 2793 d2be
000003d0: b715 a360 8e1a f3be 1155 d75c 1941 f9be
000003e0: c4c4 5b48 8205 473f
