results/theta_adjoint_burgers_sam1000_ratio0p5_noise140_dim3_True_ord2_L2T_7_reg0p1_iter10_weightedTrue.npz (npz, 794 bytes, 2 tensors)

A_opt f8 [3, 3]
00000000: 659a 5959 e8b2 88bf 7180 44c1 b384 76bf
00000010: 5926 48a8 c494 b63f 9bec f812 afc4 c4bf
00000020: 9412 163c 9d10 abbf dc1e e02c 98b7 a2bf
00000030: 6b15 0a2c 16bc b2bf 3aa7 2a30 8c10 79bf
00000040: 37a8 3594 e471 a63f
-0.012059989191766715 -0.005497648399142561 0.08820752247279397 -0.1622523157728651 -0.05286113127207162 -0.036556964376414064 -0.07318247389965442 -0.006119296655620771
0.043837683765403694

H_opt f8 [3, 9]
00000000: f51b 6b95 d82c b83f 28c4 bb5b 3f7e 923f
00000010: e4f9 8c49 5728 c23f 28c4 bb5b 3f7e 923f
00000020: 3fbb 7f5e 4535 d13f d4da cc41 9ae8 f7bf
00000030: e4f9 8c49 5728 c23f d4da cc41 9ae8 f7bf
00000040: bee7 a076 b5ee be3f 21da 4679 c9d1 bbbf
00000050: fedd a2f0 e8a8 c43f ac1f b77f 13d8 d63f
00000060: fedd a2f0 e8a8 c43f 25a3 ec3e d125 f73f
00000070: 3769 d998 6a76 b1bf ac1f b77f 13d8 d63f
00000080: 3769 d998 6a76 b1bf 5a3e 340a a0b0 b53f
00000090: 0817 a7ac a76f 99bf c543 4846 98f5 bcbf
000000a0: f77e 3780 41c3 c43f c543 4846 98f5 bcbf
000000b0: f8d8 9f2d 78e1 ed3f 980d f520 bbc5 ecbf
000000c0: f77e 3780 41c3 c43f 980d f520 bbc5 ecbf
000000d0: ac84 a7e6 c01c bc3f
0.09443429611120265 0.018059720968214205 0.141856108582899 0.018059720968214205 0.26887640217221426 -1.4942877359696256 0.141856108582899 -1.4942877359696256
0.12082990785793776 -0.10866984568460981 0.16140472173513837 0.3569382426471701 0.16140472173513837 1.446732755468653 -0.06821314078971318 0.3569382426471701
-0.06821314078971318 0.08472633599398574 -0.024839992440113284 -0.1131224795901878 0.16220873604378713 -0.1131224795901878 0.93377312575356 -0.8991370814987247
0.16220873604378713 -0.8991370814987247 0.10981374388895188
