results/theta_adjoint_burgers_sam1000_ratio0p5_noise0_dim5_False_ord2_L2_0_reg1p0_iter10_weightedFalse.npz (npz, 1706 bytes, 2 tensors)

A_opt f8 [5, 5]
-0.56164317526635 -0.8402680542449972 -0.5110941736600325 -0.044086570612151696 0.18685395491643803 -0.6092039368694436 -3.0058457811492376 -2.093258002436105
-0.2385929887614583 0.7063858556793886 0.27537635206346633 -4.523648502392923 -3.354840879896514 -0.47495074308784296 1.075645494771589 0.9111019660083086
-3.4629642106979426 -2.6931651826098317 -0.46350919461249507 0.7851536502799966 0.5640534210710062 -0.32915179924443455 -0.3706940881608082 -0.11676444664673113
0.0217803166696039
00000000: 584c b91b fbf8 e1bf da62 9bd4 79e3 eabf
00000010: b478 212b e25a e0bf 2ea8 f1d5 8392 a6bf
00000020: 2e47 bf94 d4ea c73f d35b 2e41 997e e3bf
00000030: 2ad8 76df f80b 08c0 486d 340d febe 00c0
00000040: a486 e40d 378a cebf 97ff 8f82 b69a e63f
00000050: 6614 8d22 c49f d13f 0882 2150 3718 12c0
00000060: e083 b3d0 b6d6 0ac0 d77b 31cd 9765 debf
00000070: b123 e20c d835 f13f b276 6a4f bf27 ed3f
00000080: 3554 8194 26b4 0bc0 e047 f02f 9a8b 05c0
00000090: be61 1078 22aa ddbf 1334 498c fa1f e93f
000000a0: ea4c 96c2 b90c e23f 6f29 4bb5 d210 d5bf
000000b0: 5628 5eb2 73b9 d7bf 48e9 ae57 46e4 bdbf
000000c0: e27d 2b4f 944d 963f

H_opt f8 [5, 25]
-0.07570142176445124 0.1885492504727551 -0.031224999229237625 -0.040462314684413234 0.19427069348839535 0.1885492504727551 0.3218723606644093 0.15963144670933102
-0.1941307823084636 0.042400444249893615 -0.031224999229237625 0.15963144670933102 -0.03826889481883612 0.14250307326976436 0.07238185655695137 -0.040462314684413234
-0.1941307823084636 0.14250307326976436 0.19180750137834263 0.10696073167003398 0.19427069348839535 0.042400444249893615 0.07238185655695137 0.10696073167003398
-0.058101636930050105 -0.29498258846414044 0.15469193790586255 0.0041081379148896575 -0.22575670036903728 0.7067780175005691 0.15469193790586255 0.8276144321977648
0.5231810258682362 -0.7305415444631392 0.016293408176580662 0.0041081379148896575 0.5231810258682362 -0.15793253556119563 0.4380732161000122 0.24450941178014884
-0.22575670036903728 -0.7305415444631392 0.4380732161000122 0.6426608930389393 0.1484240185009757 0.7067780175005691 0.016293408176580662 0.24450941178014884
0.1484240185009757 -0.155077542540545 -0.25309703028436203 0.10253065477045395 -0.1255064287840719 -0.3169394539166465 1.0424631673378029 0.10253065477045395
0.925354473602159 0.9287613044146686 -1.0745781524233116 0.051128901733164214 -0.1255064287840719 0.9287613044146686 -0.17108457855960554 0.731869903021382
0.3111097968196804 -0.3169394539166465 -1.0745781524233116 0.731869903021382 0.8585332519913265 0.2261478363003288 1.0424631673378029 0.051128901733164214
0.3111097968196804 0.2261478363003288 -0.5125193831580303 -0.11664330858183525 0.098714222118877 -0.3555793899013888 -0.40549825188012634 0.8864392481793935
0.098714222118877 0.7064021215083225 0.8852221975374225 -0.5128602344933422 0.27986697391548765 -0.3555793899013888 0.8852221975374225 0.4298376671922502
0.789975603105573 0.46405337140072633 -0.40549825188012634 -0.5128602344933422 0.789975603105573 1.1160174098442572 0.28326957341739284 0.8864392481793935
0.27986697391548765 0.46405337140072633 0.28326957341739284 -0.6081666051652221 -0.048183566269434375 0.08198405315880988 -0.1326394756545111 -0.4309481631753537
0.13020398109508796 0.08198405315880988 0.5321241524875424 0.30994721614878185 0.2927914792924019 0.8224064680002006 -0.1326394756545111 0.30994721614878185
0.5311696358764074 0.8596506792433 0.6064329893703521 -0.4309481631753537 0.2927914792924019 0.8596506792433 1.2682282444063797 0.6429742617505766
0.13020398109508796 0.8224064680002006 0.6064329893703521 0.6429742617505766 0.9290312558598186
00000000: 7630 bd1a 2b61 b3bf 319f 3bc0 6122 c83f
00000010: a65f 073a 72f9 9fbf e67c 94fc 79b7 a4bf
00000020: 894c 8db1 dcdd c83f 319f 3bc0 6122 c83f
00000030: 9e8e a287 8e99 d43f a3ce 83a1 cd6e c43f
00000040: 1cb4 9408 47d9 c8bf 8c40 c7d2 82b5 a53f
00000050: a65f 073a 72f9 9fbf a3ce 83a1 cd6e c43f
00000060: e2e4 6607 fb97 a3bf eaf5 a26b 8a3d c23f
00000070: ee61 bc0a 9e87 b23f e67c 94fc 79b7 a4bf
00000080: 1cb4 9408 47d9 c8bf eaf5 a26b 8a3d c23f
00000090: 0e13 c6f0 258d c83f 8aa1 7a4c c761 bb3f
000000a0: 894c 8db1 dcdd c83f 8c40 c7d2 82b5 a53f
000000b0: ee61 bc0a 9e87 b23f 8aa1 7a4c c761 bb3f
000000c0: b0d1 ea6c 7fbf adbf 3df2 95a6 fee0 d2bf
000000d0: 7459 2107 f2cc c33f abdb dedf b1d3 703f
000000e0: a80c 7876 98e5 ccbf 0a4b d6ee ec9d e63f
000000f0: 7459 2107 f2cc c33f 9495 ff42 d17b ea3f
00000100: ddbc 7f22 e6bd e03f 19d5 3aa9 9860 e7bf
00000110: 0401 091d 38af 903f abdb dedf b1d3 703f
00000120: ddbc 7f22 e6bd e03f 32d7 9a21 2237 c4bf
00000130: 47cc 193e 6409 dc3f cc78 949b 154c cf3f
00000140: a80c 7876 98e5 ccbf 19d5 3aa9 9860 e7bf
00000150: 47cc 193e 6409 dc3f 1aa7 c093 ad90 e43f
00000160: 0e88 b3e8 8eff c23f 0a4b d6ee ec9d e63f
00000170: 0401 091d 38af 903f cc78 949b 154c cf3f
00000180: 0e88 b3e8 8eff c23f d620 c7b6 94d9 c3bf
00000190: c04e f2e2 bd32 d0bf d699 13f1 723f ba3f
000001a0: 1f5d 883b 9810 c0bf 0795 586b bc48 d4bf
000001b0: cc01 b0db edad f03f d699 13f1 723f ba3f
000001c0: a183 2afc 809c ed3f ab0a 88a0 69b8 ed3f
000001d0: b677 5adc 7831 f1bf a20f a641 912d aa3f
000001e0: 1f5d 883b 9810 c0bf ab0a 88a0 69b8 ed3f
000001f0: afb8 e176 19e6 c5bf b2e9 4c6e 7a6b e73f
00000200: 1d91 b310 39e9 d33f 0795 586b bc48 d4bf
00000210: b677 5adc 7831 f1bf b2e9 4c6e 7a6b e73f
00000220: cc99 fab9 1a79 eb3f 264c 7c8c 69f2 cc3f
00000230: cc01 b0db edad f03f a20f a641 912d aa3f
00000240: 1d91 b310 39e9 d33f 264c 7c8c 69f2 cc3f
00000250: cb5a a70c 8f66 e0bf f0fd a7fb 55dc bdbf
00000260: 6d91 a6d3 5545 b93f ac84 b00e d0c1 d6bf
00000270: 9242 9af0 aef3 d9bf 4648 9ad7 b55d ec3f
00000280: 6d91 a6d3 5545 b93f 2281 369f d89a e63f
00000290: 37ba 8380 bd53 ec3f 622b d2dd 5969 e0bf
000002a0: eaa3 0c2b 57e9 d13f ac84 b00e d0c1 d6bf
000002b0: 37ba 8380 bd53 ec3f 557f cbd8 7582 db3f
000002c0: f33d 7fea 7a47 e93f 36f0 70e9 0cb3 dd3f
000002d0: 9242 9af0 aef3 d9bf 622b d2dd 5969 e0bf
000002e0: f33d 7fea 7a47 e93f 6fc3 5012 35db f13f
000002f0: 87e4 71b4 1621 d23f 4648 9ad7 b55d ec3f
00000300: eaa3 0c2b 57e9 d13f 36f0 70e9 0cb3 dd3f
00000310: 87e4 71b4 1621 d23f f486 f6cf 1976 e3bf
00000320: c8ea a932 84ab a8bf 3251 1c2b e8fc b43f
00000330: 911f 0c91 54fa c0bf ab00 c79a a794 dbbf
00000340: 4a63 4e28 86aa c03f 3251 1c2b e8fc b43f
00000350: 1210 0b3b 2907 e13f c218 36d9 2cd6 d33f
00000360: d6ee 0679 18bd d23f 2a8d 825e 2751 ea3f
00000370: 911f 0c91 54fa c0bf c218 36d9 2cd6 d33f
00000380: edf4 d676 57ff e03f 6fb1 2a24 4282 eb3f
00000390: 2bf5 1128 e667 e33f ab00 c79a a794 dbbf
000003a0: d6ee 0679 18bd d23f 6fb1 2a24 4282 eb3f
000003b0: 1e6c 19b3 a94a f43f 596e 4cc2 3e93 e43f
000003c0: 4a63 4e28 86aa c03f 2a8d 825e 2751 ea3f
000003d0: 2bf5 1128 e667 e33f 596e 4cc2 3e93 e43f
000003e0: be26 9cc1 9fba ed3f
