results/theta_adjoint_burgers_sam1000_ratio0p5_useValFalse_noise60_iter10_smoothTrue_dim3_ord2_L2T_0_reg0p01_weightedTrue.npz (npz, 794 bytes, 2 tensors)

A_opt f8 [3, 3]
0	0xbf94bbea73e46d85	-0.02024809200621071
1	0xbf911ed7b31b4ba2	-0.016719217593002995
2	0x3f7a87ff157a2f84	0.006477352544276619
3	0xbf98d0e0acdecf88	-0.02423430495373638
4	0xbf94d77e3c7a33ae	-0.020353290978664944
5	0x3f8a398dd7d3d71a	0.012805088185341474
6	0xbf5a141746d46b50	-0.0015917041121784221
7	0xbf790c13dd483bd9	-0.006115033717391826
8	0xbf4d67e840553592	-0.0008973964728881559

H_opt f8 [3, 9]
0	0x3fa9ae63312d3f12	0.05015859580328032
1	0x3fc273a404a38a5e	0.1441540739679849
2	0xbfb02f9bd1c05601	-0.06322645064241074
3	0x3fc273a404a38a5e	0.1441540739679849
4	0x3fa3ac4e851d498e	0.038423970937077376
5	0x3f73846659f3ec7c	0.004764938173361984
6	0xbfb02f9bd1c05601	-0.06322645064241074
7	0x3f73846659f3ec7c	0.004764938173361984
8	0xbf4845bd54bbc42f	-0.0007407354800915751
9	0xbfb2ab5fba846515	-0.0729274587978533
10	0x3fc4d0becc738e10	0.16262040122011046
11	0xbfc0178ed8a5ac84	-0.12571893290018832
12	0x3fc4d0becc738e10	0.16262040122011046
13	0x3fba891890f811e2	0.10365441836626801
14	0x3f89a8ea398ea938	0.012529210931309195
15	0xbfc0178ed8a5ac84	-0.12571893290018832
16	0x3f89a8ea398ea938	0.012529210931309195
17	0xbf4025b08554f455	-0.0004927741926291732
18	0xbf82af5fbd60f957	-0.009123561827547517
19	0x3faf7c3de9770b22	0.061494765042445346
20	0x3f839ee08a567048	0.00958037779019362
21	0x3faf7c3de9770b22	0.061494765042445346
22	0xbf9c8a2a447014ae	-0.027870808055031553
23	0xbf6770a83169665f	-0.002861336233121389
24	0x3f839ee08a567048	0.00958037779019362
25	0xbf6770a83169665f	-0.002861336233121389
26	0xbf49116fa95ac200	-0.0007650180075043367
