results/theta_adjoint_burgers_sam1000_ratio0p5_noise80_dim3_True_ord6_L2T_7_reg0_iter10_weightedTrue.npz (npz, 794 bytes, 2 tensors)

A_opt f8 [3, 3]
00000000: 1fc3 b191 0b73 d9bf df26 a7a1 3549 b9bf
00000010: 87e9 f331 6d18 b0bf a928 8cd5 122b a03f
00000020: c25b c755 efee 97bf 0968 562b e3dc b3bf
00000030: 242c 096b a706 f83f 38b1 878b 4d79 d53f
00000040: 40a4 2fa6 e2f7 cebf
-0.3976468012615885 -0.09877333828549294 -0.06287271947431892 0.031578625266847134 -0.023372401819724116 -0.07758922393841784 1.5016245061003781 0.33552874208432426
-0.24193986048274674

H_opt f8 [3, 9]
00000000: a465 a9a4 3990 dbbf 035a d93e 5755 cc3f
00000010: 1d7b 680f 68a7 dd3f 035a d93e 5755 cc3f
00000020: 06f1 7327 5822 0540 f13b d56e 2543 ca3f
00000030: 1d7b 680f 68a7 dd3f f13b d56e 2543 ca3f
00000040: 5129 573e 7f88 a03f f7ff 6951 74ec e0bf
00000050: 0524 5c17 ba98 db3f 1f9a 4d52 8fe3 cd3f
00000060: 0524 5c17 ba98 db3f f2eb 2d67 c996 f13f
00000070: 7f40 8e9a c4d0 f03f 1f9a 4d52 8fe3 cd3f
00000080: 7f40 8e9a c4d0 f03f d9e7 9522 9f7d ca3f
00000090: 8656 cb5a 5f1d e7bf 8a06 4bd2 4efb c23f
000000a0: 355c c644 7939 d43f 8a06 4bd2 4efb c23f
000000b0: 35cd 2e3b 98d6 09c0 6c00 7eff b85d 1140
000000c0: 355c c644 7939 d43f 6c00 7eff b85d 1140
000000d0: 3537 14be 405d ec3f
-0.43067780571217384 0.221354394615176 0.4633426809759145 0.221354394615176 2.6417697031266725 0.20517414008870064 0.4633426809759145 0.20517414008870064
0.0322913898085796 -0.5288640585058592 0.431196711361338 0.2335070754881636 0.431196711361338 1.0993131666607465 1.0509687459307597 0.2335070754881636
1.0509687459307597 0.20695866764782414 -0.7223355077100713 0.14829430835930096 0.3160079166058865 0.14829430835930096 -3.2297825454385483 4.341526023927241
0.3160079166058865 4.341526023927241 0.8863834106902916
