results/theta_adjoint_burgers_sam1000_ratio0p5_useValFalse_noise40_iter10_smoothTrue_dim5_ord2_L2T_2_reg0p1_weightedTrue.npz (npz, 1706 bytes, 2 tensors)

A_opt f8 [5, 5]
00000000: 2e34 5a16 ab60 96bf 0daf f784 37be 90bf
00000010: cfef 9e64 1b34 7a3f 27ef 3a93 f201 ec3e
00000020: 1b04 d9c4 7e8e 12bf 99ec d6a8 c115 a0bf
00000030: 3a27 f092 e91c 95bf f959 c526 acb6 8e3f
00000040: 29d1 cb4f e913 ff3e 75d1 3ec8 83e3 27bf
00000050: 0fdc 0750 d5aa 813f e604 de1c b5c3 74bf
00000060: ed13 575a 4268 7cbf b579 412b 2465 eabe
00000070: 8e0d 032d 9929 193f 3f08 c3f4 8915 773f
00000080: cd0a 956e 845c 683f f648 33a0 edf6 63bf
00000090: b4de b667 2c5e d4be 988a ea4e 0023 ff3e
000000a0: 2a59 af74 db65 8dbf 75ef b79f f154 463f
000000b0: 9675 5a13 421e 833f d9e4 5384 a975 f23e
000000c0: 4538 09d1 d238 20bf
-0.021853135337142664 -0.016350619784062426 0.006397349361517215 1.3355068041113659e-05 -7.078789459404081e-05 -0.03141598878888736 -0.020618104546918682 0.014996857579416366
2.9638079456399298e-05 -0.00018225654286897387 0.00862661982044524 -0.005069453689317193 -0.006935366812688121 -1.2586156437230424e-05 9.598729525621947e-05 0.005635775462169034
0.0029738031923057574 -0.0024370804909291622 -4.856077448981973e-06 2.9694293454905237e-05 -0.014354433535043915 0.0006815128139687614 0.009335056510560585 1.7604463455865623e-05
-0.0001237637848298686

H_opt f8 [5, 25]
00000000: 8da3 6509 dd24 aa3f ca2d 51cb f1cf c13f
00000010: 2c30 942a bd23 b0bf 52e7 6b1e 9664 2cbf
00000020: 0969 68f9 2b13 433f ca2d 51cb f1cf c13f
00000030: cf99 414d 9521 ab3f d10c 1634 b5a5 783f
00000040: b5d4 2a10 9816 0fbf 8f76 8d9c 0c14 153f
00000050: 2c30 942a bd23 b0bf d10c 1634 b5a5 783f
00000060: a986 8273 567c 37bf a1cb 72a3 d107 12bf
00000070: af99 b0e4 05a6 f93e 52e7 6b1e 9664 2cbf
00000080: b5d4 2a10 9816 0fbf a1cb 72a3 d107 12bf
00000090: e594 dc04 0bea 3e3f edda 2a2b a063 0f3f
000000a0: 0969 68f9 2b13 433f 8f76 8d9c 0c14 153f
000000b0: af99 b0e4 05a6 f93e edda 2a2b a063 0f3f
000000c0: 9c63 ce1d 53b8 413f acf2 a9d3 81ce b2bf
000000d0: cf05 70c5 15be c33f 3555 fb14 6d13 c3bf
000000e0: 60cc 1e5e 551b 3fbf 6307 6051 74fe 5a3f
000000f0: cf05 70c5 15be c33f 6109 71e9 9901 c53f
00000100: 47db 96de 01dd 923f b26a ac46 24ba 20bf
00000110: 4991 f42d 43e9 123f 3555 fb14 6d13 c3bf
00000120: 47db 96de 01dd 923f 6136 c002 646d 443f
00000130: b74a 95d4 1cb2 25bf 85c2 e8bc 40f8 093f
00000140: 60cc 1e5e 551b 3fbf b26a ac46 24ba 20bf
00000150: b74a 95d4 1cb2 25bf fa58 46e6 3857 473f
00000160: a6fa 4335 f423 233f 6307 6051 74fe 5a3f
00000170: 4991 f42d 43e9 123f 85c2 e8bc 40f8 093f
00000180: a6fa 4335 f423 233f 2b0a e2bb cb20 4c3f
00000190: a568 618b 9c92 75bf 100c 23a6 c072 b13f
000001a0: 1289 4448 4cf6 b13f 1558 2e7d ff2e 2a3f
000001b0: e54c cb3c 1599 4fbf 100c 23a6 c072 b13f
000001c0: e45f f9ef 65a5 bdbf bce0 da97 09d6 88bf
000001d0: 5659 2645 8f8b 093f 92e7 6119 561e 113f
000001e0: 1289 4448 4cf6 b13f bce0 da97 09d6 88bf
000001f0: 2027 155d c146 5dbf aba3 7b50 91f4 143f
00000200: 9ab5 adbe 510b f1be 1558 2e7d ff2e 2a3f
00000210: 5659 2645 8f8b 093f aba3 7b50 91f4 143f
00000220: 81f5 509c cc97 1dbf 3fe2 59a5 16f6 12bf
00000230: e54c cb3c 1599 4fbf 92e7 6119 561e 113f
00000240: 9ab5 adbe 510b f1be 3fe2 59a5 16f6 12bf
00000250: cb05 f674 89a6 25bf 17a4 6d40 e244 62bf
00000260: b1c0 d91c 9803 96bf fbc2 36d6 0fc3 983f
00000270: 978c 0158 4941 143f 3291 fa47 ed8d 31bf
00000280: b1c0 d91c 9803 96bf 3b57 cd76 8ad1 9cbf
00000290: 6c88 7c79 2948 69bf 1298 8e34 c2e1 f53e
000002a0: f266 556f 02bc e2be fbc2 36d6 0fc3 983f
000002b0: 6c88 7c79 2948 69bf fec3 5cc8 1af0 24bf
000002c0: 5797 f779 6232 fc3e 4819 2e9f f250 e0be
000002d0: 978c 0158 4941 143f 1298 8e34 c2e1 f53e
000002e0: 5797 f779 6232 fc3e 07cb b897 cdc4 1ebf
000002f0: a39b 4995 baff f8be 3291 fa47 ed8d 31bf
00000300: f266 556f 02bc e2be 4819 2e9f f250 e0be
00000310: a39b 4995 baff f8be e64f 628e 9763 22bf
00000320: 05c5 e64e 9339 6ebf 6403 900f 2361 a0bf
00000330: 0ab8 816b a503 b8bf 12be 1a88 1e53 32bf
00000340: f7c2 b221 29ad 533f 6403 900f 2361 a0bf
00000350: b6ec f443 e1d1 c13f a1f6 52ee a54a 8e3f
00000360: 2604 fa4b 898c 12bf 2ca9 f5a5 df47 08bf
00000370: 0ab8 816b a503 b8bf a1f6 52ee a54a 8e3f
00000380: 19b5 df21 0a34 5d3f 827e 012b 20ca 1bbf
00000390: a1f7 7fff 10ba f93e 12be 1a88 1e53 32bf
000003a0: 2604 fa4b 898c 12bf 827e 012b 20ca 1bbf
000003b0: 9a2f c3b9 031c 303f 553b 2d3a 44ff 183f
000003c0: f7c2 b221 29ad 533f 2ca9 f5a5 df47 08bf
000003d0: a1f7 7fff 10ba f93e 553b 2d3a 44ff 183f
000003e0: 8ad1 d178 871b 353f
0.051062495610330584 0.13915846278756155 -0.06304533280871344 -0.0002166207552461394 0.0005821194379820603 0.13915846278756155 0.052990594559378594 0.006017406297704046
-5.9296146010559386e-05 8.040739988987077e-05 -0.06304533280871344 0.006017406297704046 -0.00035836325288061494 -6.878106147460577e-05 2.446034185878972e-05 -0.0002166207552461394
-5.9296146010559386e-05 -6.878106147460577e-05 0.00047171372431116374 5.987007661672158e-05 0.0005821194379820603 8.040739988987077e-05 2.446034185878972e-05 5.987007661672158e-05
0.0005407720415063657 -0.07346354882788358 0.15423843517787225 -0.14903033756733355 -0.0004746516625530658 0.0016475807110513877 0.15423843517787225 0.16411136530411866
0.01842120095326585 -0.00012761776755428538 7.21404317017327e-05 -0.14903033756733355 0.01842120095326585 0.0006233919461934961 -0.00016552545484190492 4.9533343929990466e-05
-0.0004746516625530658 -0.00012761776755428538 -0.00016552545484190492 0.0007123020009654195 0.00014603000693820984 0.0016475807110513877 7.21404317017327e-05 4.9533343929990466e-05
0.00014603000693820984 0.0008584017557640757 -0.005266772748735137 0.06815723472668389 0.07016445888851688 0.00019976490747514232 -0.0009642938326472032 0.06815723472668389
-0.1158050261377635 -0.012126994082209179 4.872351623246239e-05 6.53018999815776e-05 0.07016445888851688 -0.012126994082209179 -0.001786888915676639 7.99382870543391e-05
-1.6254631116143643e-05 0.00019976490747514232 4.872351623246239e-05 7.99382870543391e-05 -0.00011288820594842175 -7.23315545999659e-05 -0.0009642938326472032 6.53018999815776e-05
-1.6254631116143643e-05 -7.23315545999659e-05 -0.0001651804727594144 -0.00223011197833901 -0.021498085747624077 0.024181601953105574 7.726678995960617e-05 -0.0002678589153026933
-0.021498085747624077 -0.028143085003953443 -0.0030861673402720526 2.08681770207595e-05 -8.933263851918186e-06 0.024181601953105574 -0.0030861673402720526 -0.00015974356591066935
2.689057839502044e-05 -7.780171449100898e-06 7.726678995960617e-05 2.08681770207595e-05 2.689057839502044e-05 -0.00011737351263078562 -2.3840847762103924e-05 -0.0002678589153026933
-8.933263851918186e-06 -7.780171449100898e-06 -2.3840847762103924e-05 -0.0001402971749412389 -0.0036895634759380757 -0.03199109616253429 -0.09380563616443297 -0.0002796124973469548
0.001200952689753785 -0.03199109616253429 0.13921752756309552 0.014790817580770112 -7.075870507301847e-05 -4.631186743149699e-05 -0.09380563616443297 0.014790817580770112
0.0017824267338214016 -0.00010600873315657659 2.4535009259800078e-05 -0.0002796124973469548 -7.075870507301847e-05 -0.00010600873315657659 0.0002458104224956015 9.535650182822032e-05
0.001200952689753785 -4.631186743149699e-05 2.4535009259800078e-05 9.535650182822032e-05 0.00032207543774311813
