results/theta_adjoint_fkpp_sam2001_ratio0p75_useValTrue_noise140_iter10_smoothTrue_dim4_ord2_L2T_1_reg0p1_weightedTrue.npz (npz, 1146 bytes, 2 tensors)

A_opt f8 [4, 4]
000000 2b 57 86 0e 42 48 a1 3f b6 f3 49 51 1c 97 95 bf
       0.03375441005043308 -0.021084253751258074
000010 5b b9 02 c5 e9 5a 61 bf c2 65 b9 14 5e ef 05 3f
       -0.002118546086499124 4.183774816786001e-05
000020 e2 76 d4 d2 f3 10 91 3f 59 83 02 9d 01 bb 9a bf
       0.016666230910337705 -0.02610399742900724
000030 23 cd c3 a7 3f 71 8a 3f 81 bd 56 b1 be eb 17 3f
       0.012911317164685137 9.125090976768413e-05
000040 95 e2 72 74 14 65 a6 bf df f8 3d f1 c4 79 b4 3f
       -0.043739928450525024 0.07998305215548694
000050 70 89 cb 84 7e b6 a4 bf aa 0d b7 ea 65 0a 31 bf
       -0.04045482035668868 -0.0002600191898773594
000060 db 71 35 fa fd 17 a0 3f a9 b7 bb e6 47 06 a7 bf
       0.03143304518991715 -0.04496979419296505
000070 8a 7c 5d 69 83 93 92 3f 6c b3 e8 ba d1 21 22 3f
       0.01814084368322403 0.00013833699399992282

H_opt f8 [4, 16]
000000 8e 46 50 21 c1 40 a7 bf b3 03 03 9e b7 b4 b0 3f
       -0.045415911976431564 0.06525752647122722
000010 a8 a6 90 52 cb 84 94 3f a5 4b 2d f9 c7 71 35 bf
       0.020037819780702876 -0.0003272164550953089
000020 b3 03 03 9e b7 b4 b0 3f 42 f4 f5 d4 78 04 9f bf
       0.06525752647122722 -0.03029049682435337
000030 c5 5d d1 de ee 7e 72 3f 14 1a 9f 3f 04 bd 0f bf
       0.004515584075384498 -6.053609099825413e-05
000040 a8 a6 90 52 cb 84 94 3f c5 5d d1 de ee 7e 72 3f
       0.020037819780702876 0.004515584075384498
000050 94 36 4a fa d0 48 7c bf f4 88 e6 a7 d9 2c e0 3e
       -0.006905380553360669 7.712934572638438e-06
000060 a5 4b 2d f9 c7 71 35 bf 14 1a 9f 3f 04 bd 0f bf
       -0.0003272164550953089 -6.053609099825413e-05
000070 f4 88 e6 a7 d9 2c e0 3e 64 58 13 0f ed 98 6a bf
       7.712934572638438e-06 -0.0032467489296364328
000080 c2 aa 61 0c d7 15 92 bf 0c b4 2c 56 cc 56 94 3f
       -0.017661438112933643 0.01986235881775049
000090 e6 cb c7 14 17 16 a0 bf f6 cd 9d 35 24 99 43 bf
       -0.03141853455226577 -0.0005980898670103197
0000a0 0c b4 2c 56 cc 56 94 3f b1 76 1c 96 d1 b5 b6 bf
       0.01986235881775049 -0.08871183314155463
0000b0 59 9c 9c b2 cc 6d 8b 3f 9d 0e d0 34 d0 24 f7 be
       0.013393019867704735 -2.2071649528511613e-05
0000c0 e6 cb c7 14 17 16 a0 bf 59 9c 9c b2 cc 6d 8b 3f
       -0.03141853455226577 0.013393019867704735
0000d0 a1 30 db 1b f7 95 95 bf 28 1f 14 a4 48 2c 26 3f
       -0.021079884600837876 0.000169166438390039
0000e0 f6 cd 9d 35 24 99 43 bf 9d 0e d0 34 d0 24 f7 be
       -0.0005980898670103197 -2.2071649528511613e-05
0000f0 28 1f 14 a4 48 2c 26 3f 4f b7 21 aa f6 db 67 bf
       0.000169166438390039 -0.0029125039737242574
000100 fb e2 a7 a2 8f 1b 87 bf 0d 31 71 80 b1 93 ae bf
       -0.011283037330018333 -0.05972056095979115
000110 c5 bd 67 97 73 14 ba 3f 0c e5 10 55 3b df 5c 3f
       0.10187456556717851 0.0017622069756398377
000120 0d 31 71 80 b1 93 ae bf 93 85 96 eb 59 8b d1 3f
       -0.05972056095979115 0.2741303253806901
000130 68 7e 58 ce 7b 2b a5 bf bf 22 4c f5 6f 9a 1e 3f
       -0.04134737867229604 0.00011674221361713653
000140 c5 bd 67 97 73 14 ba 3f 68 7e 58 ce 7b 2b a5 bf
       0.10187456556717851 -0.04134737867229604
000150 84 d3 28 58 61 69 b0 3f 96 f2 9f 76 99 2e 41 bf
       0.0641079750283336 -0.0005243539173985397
000160 0c e5 10 55 3b df 5c 3f bf 22 4c f5 6f 9a 1e 3f
       0.0017622069756398377 0.00011674221361713653
000170 96 f2 9f 76 99 2e 41 bf 0b 83 82 6f 51 ad 81 3f
       -0.0005243539173985397 0.008631359305867578
000180 6e 39 89 22 3e 42 66 3f 6e 8d dd 36 cc 9f aa 3f
       0.0027171338627233676 0.05200040979141361
000190 45 5e 70 a2 95 87 a4 bf 1c f9 b6 40 06 f0 4e bf
       -0.04009692771813581 -0.0009441404849253351
0001a0 6e 8d dd 36 cc 9f aa 3f 30 d9 2d b1 6b bf c1 bf
       0.05200040979141361 -0.13865419532130252
0001b0 99 33 a1 5a f2 67 95 3f 65 89 e2 8b 29 e9 11 bf
       0.020904337674710758 -6.832424239403485e-05
0001c0 45 5e 70 a2 95 87 a4 bf 99 33 a1 5a f2 67 95 3f
       -0.04009692771813581 0.020904337674710758
0001d0 ee 4c 6e a6 c6 92 a0 bf b6 00 e0 a1 bf fb 2f 3f
       -0.03236981183649755 0.00024401392232676283
0001e0 1c f9 b6 40 06 f0 4e bf 65 89 e2 8b 29 e9 11 bf
       -0.0009441404849253351 -6.832424239403485e-05
0001f0 b6 00 e0 a1 bf fb 2f 3f 6e d3 37 2d 34 21 75 bf
       0.00024401392232676283 -0.005158618750546446
