results/theta_adjoint_burgers_sam1000_ratio0p5_useValFalse_noise120_iter10_smoothTrue_dim4_ord2_L2T_2_reg0p1_weightedTrue.npz (npz, 1146 bytes, 2 tensors)

A_opt f8 [4, 4]
00000000: e2fb 35b4 6193 86bf 877b 4a46 6794 90bf
00000010: e8aa dd16 3683 09bf 0f92 60d4 b8d3 0fbf
00000020: 9a64 95c8 105e 79bf 7029 a743 ca20 93bf
00000030: feda 1f1f f9be 13bf 7de6 ef3a b07f 19bf
00000040: aae3 a5c3 32e9 673f d9bf 0b40 771c 743f
00000050: f556 7d1a b55a fa3e f90b 2b8d 2e13 023f
00000060: 747b 9ec1 f9fb 723f 6cd6 5959 1e75 813f
00000070: 0ec4 551c 439f 063f 5a2b 78fd 26a6 0e3f
-0.011023295700168082 -0.016191114106387097 -4.8661316084904805e-05 -6.0705259372438e-05 -0.006193223534262016 -0.018679771784982646 -7.532496945815076e-05 -9.727013706131191e-05
0.0029188148011453823 0.004909959622395343 2.5133443755840296e-05 3.4475191247128287e-05 0.004634833918230597 0.008524167157911232 4.314826541474563e-05 5.845839012515756e-05

H_opt f8 [4, 16]
00000000: cf2f c18f c5f1 aa3f cf21 9493 be22 c33f
00000010: 8e03 cb3f 6b3a 403f 48de fe42 2c13 433f
00000020: cf21 9493 be22 c33f d995 fa4d 18a5 a5bf
00000030: b757 b8d3 736d 50bf ecfc 18f4 44db 56bf
00000040: 8e03 cb3f 6b3a 403f b757 b8d3 736d 50bf
00000050: b589 88b8 b301 643f 1a89 b086 9591 20bf
00000060: 48de fe42 2c13 433f ecfc 18f4 44db 56bf
00000070: 1a89 b086 9591 20bf c8e5 d863 8ffe 613f
00000080: 8b14 c9cd a86f b0bf f719 fe92 79f9 c53f
00000090: 95be bf93 6c61 503f 69f5 9d3c 9247 553f
000000a0: f719 fe92 79f9 c53f 3f4d 561e 83c4 abbf
000000b0: 27c0 f0bb 824b 54bf a5bb 8bdd 3d08 5dbf
000000c0: 95be bf93 6c61 503f 27c0 f0bb 824b 54bf
000000d0: 2364 c459 9401 623f 2c75 d947 4f31 24bf
000000e0: 69f5 9d3c 9247 553f a5bb 8bdd 3d08 5dbf
000000f0: 2c75 d947 4f31 24bf 9c5c e2e8 7a13 603f
00000100: fa9e 7109 5e03 83bf 8d20 5d34 70bb a7bf
00000110: 6bce 934f 3e3e 38bf ab6c 1203 2785 40bf
00000120: 8d20 5d34 70bb a7bf 13e8 656b 4921 8c3f
00000130: 1db9 d8b9 41a0 363f 7aee 4c95 933d 403f
00000140: 6bce 934f 3e3e 38bf 1db9 d8b9 41a0 363f
00000150: 6f07 61e6 a2dc 46bf 917c ef17 bc03 073f
00000160: ab6c 1203 2785 40bf 7aee 4c95 933d 403f
00000170: 917c ef17 bc03 073f 8f20 31ce c15f 44bf
00000180: 0a58 9912 8fe4 7fbf e0eb 191f 7153 b4bf
00000190: 3c7d 9dee 26e6 44bf 30bd 7996 5e2c 4cbf
000001a0: e0eb 191f 7153 b4bf 160f 55f4 e1ac 983f
000001b0: 7b14 4864 c361 433f 3f2a 6cb8 06ce 4b3f
000001c0: 3c7d 9dee 26e6 44bf 7b14 4864 c361 433f
000001d0: c317 7a42 8b2a 53bf 6e40 960c fe1b 143f
000001e0: 30bd 7996 5e2c 4cbf 3f2a 6cb8 06ce 4b3f
000001f0: 6e40 960c fe1b 143f 7067 14a5 1c12 51bf
0.05262582187478381 0.14949781614292454 0.0004952453305905201 0.0005821195718373551 0.14949781614292454 -0.042275199431326356 -0.0010026579974513458 -0.0013950513242802455
0.0004952453305905201 -0.0010026579974513458 0.0024422178432967575 -0.0001264090563789032 0.0005821195718373551 -0.0013950513242802455 -0.0001264090563789032 0.0021965790354243377
-0.06420378707942313 0.1716758697259164 0.0009997902225186474 0.0012988021939855604 0.1716758697259164 -0.05423364396406293 -0.0012387062740906259 -0.0017719844965389056
0.0009997902225186474 -0.0012387062740906259 0.0021980187867822894 -0.0001540574339057658 0.0012988021939855604 -0.0017719844965389056 -0.0001540574339057658 0.00196241384316982
-0.009283766425326235 -0.04635191573339723 -0.00036992093335117573 -0.000504154251888341 -0.04635191573339723 0.013735364522961679 0.00034524540555737495 0.0004956217404478846
-0.00036992093335117573 0.00034524540555737495 -0.0006976886186367113 4.3896844537754814e-05 -0.000504154251888341 0.0004956217404478846 4.3896844537754814e-05 -0.0006217666926966614
-0.007786330106304371 -0.07939822205837244 -0.0006377878282641035 -0.0008597814421146596 -0.07939822205837244 0.02409699491296554 0.0005914882718235504 0.0008485348524527938
-0.0006377878282641035 0.0005914882718235504 -0.0011698112447517818 7.671106427254031e-05 -0.0008597814421146596 0.0008485348524527938 7.671106427254031e-05 -0.0010419158682623796
