results/theta_adjoint_burgers_sam1000_ratio0p5_useValTrue_noise140_iter10_smoothTrue_dim4_ord2_L2T_2_reg0p01_weightedFalse.npz (npz, 1146 bytes, 2 tensors)

A_opt f8 [4, 4]
000000 94 8d b9 bd cb 12 87 bf 47 9b 70 86 98 6a 91 bf
       -0.011266319014970695 -0.017008193212088043
000010 28 79 1a 79 c9 49 04 bf af df a9 0e 42 28 f6 be
       -3.86967286776111e-05 -2.1130807832808466e-05
000020 13 37 15 c8 a6 c1 81 bf a4 64 01 74 3c 41 94 bf
       -0.008670142155689875 -0.019780106144342682
000030 bd 1d 65 31 b3 d3 b3 be 42 44 6e a0 c6 3c 02 3f
       -1.1817784915812447e-06 3.478509102373312e-05
000040 22 f3 8e a8 eb c4 52 3f 74 11 b5 f5 87 15 6c 3f
       0.0011455823280208184 0.0034282355751732944
000050 d3 28 06 ed 71 ea e5 3e 24 3c 92 5e 3a bc ff 3e
       1.0450268207025045e-05 3.0265107771539884e-05
000060 47 a1 fb 4f 16 12 73 3f a7 51 ed a5 ee 29 84 3f
       0.004655921132986691 0.009845604361239447
000070 b5 f9 bf cf a8 4c c9 3e 59 13 95 13 6c dc fc 3e
       3.0159295629765664e-06 2.752401744500767e-05

H_opt f8 [4, 16]
000000 79 60 54 2a 42 d2 a9 3f 45 62 eb fd 47 95 c3 3f
       0.05043226973265375 0.15299320124064955
000010 19 00 27 a8 b3 20 3c 3f d9 53 60 8d 43 35 25 3f
       0.00042919527200169363 0.0001618046723598488
000020 45 62 eb fd 47 95 c3 3f cf 17 99 27 ea af a6 bf
       0.15299320124064955 -0.04431087239622366
000030 83 c8 45 8e e6 13 44 bf ea 66 45 06 0e db 44 bf
       -0.0006127238998898807 -0.0006364649275767108
000040 19 00 27 a8 b3 20 3c 3f 83 c8 45 8e e6 13 44 bf
       0.00042919527200169363 -0.0006127238998898807
000050 ea a4 44 1b 95 62 6d 3f 2c a0 5d c4 a8 25 16 bf
       0.0035870468365329826 -8.448450634335251e-05
000060 d9 53 60 8d 43 35 25 3f ea 66 45 06 0e db 44 bf
       0.0001618046723598488 -0.0006364649275767108
000070 2c a0 5d c4 a8 25 16 bf 10 ae be 84 a9 cc 6e 3f
       -8.448450634335251e-05 0.003759699908149512
000080 ec 73 23 45 45 28 a9 bf 46 1f ed 5d 36 07 c6 3f
       -0.04913536519027403 0.17209510408633316
000090 a6 e3 da 8b f1 03 3e bf 75 d2 f2 07 b5 da 4a bf
       -0.00045799872519186114 -0.0008195289555233536
0000a0 46 1f ed 5d 36 07 c6 3f 63 e6 26 6c 48 2f a9 bf
       0.17209510408633316 -0.04918886490072507
0000b0 7e 3b 99 d0 59 ec 42 bf b5 7c a1 66 6a 51 42 bf
       -0.0005774916218771323 -0.0005590219054844222
0000c0 a6 e3 da 8b f1 03 3e bf 7e 3b 99 d0 59 ec 42 bf
       -0.00045799872519186114 -0.0005774916218771323
0000d0 3d 50 eb 51 84 99 6d 3f 81 71 0b 47 f1 72 16 bf
       0.0036132416129053533 -8.56361164198235e-05
0000e0 75 d2 f2 07 b5 da 4a bf b5 7c a1 66 6a 51 42 bf
       -0.0008195289555233536 -0.0005590219054844222
0000f0 81 71 0b 47 f1 72 16 bf a1 11 0a 18 1b a2 70 3f
       -8.56361164198235e-05 0.004060846171914185
000100 7b 71 bc 7a c2 18 80 3f 59 1a 15 1a f3 ac 98 bf
       0.00785972535191414 -0.024097250430055037
000110 dc b4 aa f1 b5 16 1d bf 88 00 e7 5d ec f2 3e bf
       -0.00011096463678468858 -0.00047224302934623834
000120 59 1a 15 1a f3 ac 98 bf 61 76 cc 9a 21 ba 85 3f
       -0.024097250430055037 0.0106089234700974
000130 39 f6 e2 76 ba be 1b 3f b9 51 a1 81 8f 02 27 3f
       0.00010583890045531224 0.00017555238520351542
000140 dc b4 aa f1 b5 16 1d bf 39 f6 e2 76 ba be 1b 3f
       -0.00011096463678468858 0.00010583890045531224
000150 5e f4 88 3e aa be 43 bf 52 62 8b bb c5 d4 b5 3e
       -0.0006025630255589544 1.3012374734858731e-06
000160 88 00 e7 5d ec f2 3e bf b9 51 a1 81 8f 02 27 3f
       -0.00047224302934623834 0.00017555238520351542
000170 52 62 8b bb c5 d4 b5 3e 81 67 23 54 0d 4d 43 bf
       1.3012374734858731e-06 -0.0005890193063138178
000180 d6 5e 52 c9 13 f9 90 3f 35 00 c3 80 1c 37 ad bf
       0.016575154459672024 -0.0570610911540829
000190 63 c2 e4 f1 59 f3 2b 3f 57 ba d6 d4 86 7d 2e bf
       0.0002132460876480723 -0.00023262282267695847
0001a0 35 00 c3 80 1c 37 ad bf 11 08 0b be b7 98 99 3f
       -0.0570610911540829 0.024996634458837323
0001b0 5a e8 0d 80 ef 44 2b 3f 3a 26 36 0c 27 e0 20 3f
       0.00020804809176039573 0.00012875057846555173
0001c0 63 c2 e4 f1 59 f3 2b 3f 5a e8 0d 80 ef 44 2b 3f
       0.0002132460876480723 0.00020804809176039573
0001d0 fc e1 14 26 1a 1d 60 bf b0 02 71 dc 85 13 fc 3e
       -0.0019670019834416835 2.677560931041667e-05
0001e0 57 ba d6 d4 86 7d 2e bf 3a 26 36 0c 27 e0 20 3f
       -0.00023262282267695847 0.00012875057846555173
0001f0 b0 02 71 dc 85 13 fc 3e 65 19 59 56 28 0c 61 bf
       2.677560931041667e-05 -0.002080992492469113
