results/theta_adjoint_fkpp_sam2001_ratio0p75_useValFalse_noise60_iter10_smoothTrue_dim4_ord2_L2T_0_reg0_weightedTrue.npz (npz, 1146 bytes, 2 tensors)

A_opt f8 [4, 4]
0.04277540196866585 -0.02390416617704137 -0.011893454453385192 -0.008259920919207036 -0.00802544255898401 -0.0181452531385112 0.04065584190170161 0.02345273219503103
0.003920615439648588 0.05896016902263413 -0.0825405413173019 -0.03724005120556063 0.03936981692920113 0.02549988247658386 -0.08856282537359678 -0.050791836943073515
00000000: 56ae 0e51 a8e6 a53f 7bc9 df6f 557a 98bf
00000010: c25e 4f6f 985b 88bf 496d b9d1 93ea 80bf
00000020: db35 9daa a46f 80bf 97ed 3a53 ab94 92bf
00000030: 25e3 b7ae d7d0 a43f 7236 1e37 fe03 983f
00000040: 65e8 7e31 100f 703f 910c 70fb 0630 ae3f
00000050: 7e4c 8d7d 6021 b5bf a1f9 0ec4 2011 a3bf
00000060: 5b23 52d8 4728 a43f a1b3 2725 a41c 9a3f
00000070: 0cf7 9ea6 0dac b6bf 1c06 263d 6301 aabf

H_opt f8 [4, 16]
-0.04441019982304787 0.06399543050559268 0.016958179210713208 0.022020738645292866 0.06399543050559268 -0.037397117905965296 -0.018577696828615316 -0.007540672237689793
0.016958179210713208 -0.018577696828615316 0.0096690897368295 0.0033297187820379133 0.022020738645292866 -0.007540672237689793 0.0033297187820379133 0.0011739198858480365
-0.019795888118692588 0.014962312018096247 -0.02462531770596308 -0.06609901786152085 0.014962312018096247 -0.06919574556017032 0.07331518239621647 0.020522963154834234
-0.02462531770596308 0.07331518239621647 -0.05942562458283694 -0.01323600034181567 -0.06609901786152085 0.020522963154834234 -0.01323600034181567 -0.009187606603805881
-0.006231774186967951 -0.038087632898333716 0.08019924178045164 0.09673762711525398 -0.038087632898333716 0.21803419796516138 -0.1374804578405695 -0.03688167343422899
0.08019924178045164 -0.1374804578405695 0.11852446191396453 0.024527368826836607 0.09673762711525398 -0.03688167343422899 0.024527368826836607 0.018558371523367437
0.0029558410837644206 0.0038431312961781767 0.0632028401669666 0.1418470670582396 0.0038431312961781767 0.12629758611311162 -0.15814028189031054 -0.04536679162825333
0.0632028401669666 -0.15814028189031054 0.1249213527907905 0.028435013958747042 0.1418470670582396 -0.04536679162825333 0.028435013958747042 0.019135192870858977
00000000: f597 b207 efbc a6bf 1b6e 1d29 0162 b03f
00000010: 865a 7024 7c5d 913f 02dd 42c1 9a8c 963f
00000020: 1b6e 1d29 0162 b03f 7ad6 bd0c b725 a3bf
00000030: 7f70 4121 0806 93bf cc66 69ca f7e2 7ebf
00000040: 865a 7024 7c5d 913f 7f70 4121 0806 93bf
00000050: 9d3a 9d41 63cd 833f fa64 c228 ed46 6b3f
00000060: 02dd 42c1 9a8c 963f cc66 69ca f7e2 7ebf
00000070: fa64 c228 ed46 6b3f 2150 24e1 c63b 533f
00000080: fe9e 4290 5f45 94bf ad79 5286 8fa4 8e3f
00000090: da89 cd18 6137 99bf d150 0380 ddeb b0bf
000000a0: ad79 5286 8fa4 8e3f 6b09 34f8 cfb6 b1bf
000000b0: 8728 b1a6 c8c4 b23f 78a2 44be f803 953f
000000c0: da89 cd18 6137 99bf 8728 b1a6 c8c4 b23f
000000d0: 6e5c 4114 096d aebf 6896 c8e4 791b 8bbf
000000e0: d150 0380 ddeb b0bf 78a2 44be f803 953f
000000f0: 6896 c8e4 791b 8bbf 7087 22af f3d0 82bf
00000100: f1ed 4325 7d86 79bf ff5c 5ce3 3880 a3bf
00000110: e56c 9c00 f087 b43f 3dae c010 ccc3 b83f
00000120: ff5c 5ce3 3880 a3bf 2ec1 d56a 8be8 cb3f
00000130: 50d6 21ab f598 c1bf 408b 719a 27e2 a2bf
00000140: e56c 9c00 f087 b43f 50d6 21ab f598 c1bf
00000150: 334c b27f 9e57 be3f 046e dfdb b31d 993f
00000160: 3dae c010 ccc3 b83f 408b 719a 27e2 a2bf
00000170: 046e dfdb b31d 993f 341e 0a3b f700 933f
00000180: b29f 2e19 d936 683f dbf7 6667 a17b 6f3f
00000190: 3d0c 88b3 0f2e b03f 6d3a 0671 0b28 c23f
000001a0: dbf7 6667 a17b 6f3f 15b4 f5f0 842a c03f
000001b0: de15 73d5 f03d c4bf 944f bcec 503a a7bf
000001c0: 3d0c 88b3 0f2e b03f de15 73d5 f03d c4bf
000001d0: 66fb ce84 d8fa bf3f 0276 0e7c 111e 9d3f
000001e0: 6d3a 0671 0b28 c23f 944f bcec 503a a7bf
000001f0: 0276 0e7c 111e 9d3f c4fb 540e 2d98 933f
