results/theta_adjoint_burgers_sam1000_ratio0p5_noise140_dim3_True_ord2_L2T_7_reg0_iter10_weightedTrue.npz (npz, 794 bytes, 2 tensors)

A_opt f8 [3, 3]
000000 9b 44 3a 10 da b9 88 bf d1 db 91 95 5d 7e 76 bf
       -0.012073234195926033 -0.005491605342391418
000010 60 7c e0 d2 8f f4 b6 3f 66 52 b8 ac dc 1e c5 bf
       0.08966921709405673 -0.16500433381647212
000020 15 8e fd 04 20 8f ab bf 61 d1 bd 1c 35 07 a3 bf
       -0.05382633267324991 -0.03716436363075349
000030 e5 dd 29 17 f5 07 b3 bf 25 2c e8 21 71 70 79 bf
       -0.07434017005458989 -0.006210748599651904
000040 76 ec e0 47 91 d1 a6 3f
       0.04456762316154876

H_opt f8 [3, 9]
000000 87 fa 89 a3 d0 5f b8 3f a8 95 64 65 c4 4f 91 3f
       0.09521202080393652 0.01690585011342241
000010 44 52 d0 b7 32 7b c2 3f a8 95 64 65 c4 4f 91 3f
       0.14438470816880244 0.01690585011342241
000020 81 63 df 6d f9 77 d1 3f 1c 10 93 58 99 4e f8 bf
       0.27294765214679023 -1.5191892108860037
000030 44 52 d0 b7 32 7b c2 3f 1c 10 93 58 99 4e f8 bf
       0.14438470816880244 -1.5191892108860037
000040 fd 5b fa 6b b9 6e bf 3f f3 fa 56 72 a0 3c bc bf
       0.1227832687967378 -0.11030009070871553
000050 f9 2b 1c 6a 9b 36 c5 3f 8b 86 d8 60 0d 39 d7 3f
       0.16572897606997097 0.3628571935424609
000060 f9 2b 1c 6a 9b 36 c5 3f 98 49 c4 8c a7 87 f7 3f
       0.16572897606997097 1.4706187723828403
000070 aa 3f 35 5e e4 c1 b1 bf 8b 86 d8 60 0d 39 d7 3f
       -0.06936480808258119 0.3628571935424609
000080 aa 3f 35 5e e4 c1 b1 bf d0 ca 0f 71 c2 0d b6 3f
       -0.06936480808258119 0.08614745388312461
000090 d8 aa 56 86 9e f8 9a bf 17 d7 56 da 3d 7d bd bf
       -0.026339032124876066 -0.11519228535220481
0000a0 99 37 33 37 a1 1b c5 3f 17 d7 56 da 3d 7d bd bf
       0.16490569300952698 -0.11519228535220481
0000b0 3b f1 6c ee ca 60 ee 3f e1 c8 45 e1 53 40 ed bf
       0.9493155152081622 -0.9141024970870398
0000c0 99 37 33 37 a1 1b c5 3f e1 c8 45 e1 53 40 ed bf
       0.16490569300952698 -0.9141024970870398
0000d0 1c ff f9 b6 14 94 bc 3f
       0.11163453547669316
