results/theta_adjoint_fkpp_sam2001_ratio0p75_noise180_dim5_False_ord2_L2T_3_reg0_iter10_weightedFalse.npz (npz, 1706 bytes, 2 tensors)

A_opt f8 [5, 5]
0.03324376983254719 -0.020311208210954286 -0.0031125282089233437 6.349087585497407e-05 -0.00012153232760737015 0.010564604175187705 -0.011719949243461295 0.005086234244121701
-0.00014416177444425318 -0.00014585416362652913 -0.027356199926342133 0.039221394372769385 -0.01782419421066385 0.00042424092412353203 0.0005780797775217526 0.014498176249725128
-0.008538034977403025 -0.00385736328832525 8.297784498168677e-05 -0.00012763688877099312 -0.0017012293524151956 0.00020922113979682559 0.0007648186634731553 -5.8635866835487033e-05
2.3234369957546106e-05
00000000: 42fd 73d0 5305 a13f 927e 081c 76cc 94bf
00000010: a8be afdb 717f 69bf cf78 0af1 cca4 103f
00000020: 5c81 6b7d e5db 1fbf 11c2 6b2b e5a2 853f
00000030: b50a b1f5 a000 88bf 8d11 d09b 4dd5 743f
00000040: a986 9036 44e5 22bf e7db bbb9 0d1e 23bf
00000050: ce1c 1b80 4303 9cbf 6fe5 449c d314 a43f
00000060: 4473 d96c 8140 92bf dc60 0de5 94cd 3b3f
00000070: 136b 95de 48f1 423f eef2 c046 38b1 8d3f
00000080: 431a 00a8 637c 81bf 743c 8225 7a99 6fbf
00000090: 01e2 9e85 8cc0 153f c578 ac86 c8ba 20bf
000000a0: 4da3 9f1b 79df 5bbf 7460 f7e7 4b6c 2b3f
000000b0: a07d d092 c30f 493f 376c 1f0b f9bd 0ebf
000000c0: 2efe eabe ed5c f83e

H_opt f8 [5, 25]
-0.039579148753690035 0.07188440555110279 0.024942110361513354 -0.0005327918489879948 0.0004457904142590659 0.07188440555110279 -0.024543644171506104 0.00861545754183597
-0.00014711714474941706 -0.0003113143515671621 0.024942110361513354 0.00861545754183597 -0.008477972048868654 3.833704107587714e-05 0.00014078361519837023 -0.0005327918489879948
-0.00014711714474941706 3.833704107587714e-05 -0.005264251715033695 -5.054770263886163e-05 0.0004457904142590659 -0.0003113143515671621 0.00014078361519837023 -5.054770263886163e-05
-0.005318181144850512 -0.014537654120484045 0.028687872451929122 -0.01207461266167488 0.0004569466943973809 0.0004421611978867894 0.028687872451929122 -0.03108313593866767
0.018247189596398233 -0.00043073705125462456 -0.00048371777220429236 -0.01207461266167488 0.018247189596398233 -0.01032500778558806 9.414306039402893e-05 0.00029500256321759956
0.0004569466943973809 -0.00043073705125462456 9.414306039402893e-05 -0.002511372150459802 0.00015659912670356176 0.0004421611978867894 -0.00048371777220429236 0.00029500256321759956
0.00015659912670356176 -0.002250005640103834 -0.03348205179242232 -0.09817969736569697 0.04381598500203632 -0.0012923940086683936 -0.001677357470229689 -0.09817969736569697
0.10520578800100515 -0.06271070334529501 0.0013234189292143051 0.0019509791545835181 0.04381598500203632 -0.06271070334529501 0.036663817420535545 -0.0004472646904754068
-0.0013175586905278104 -0.0012923940086683936 0.0013234189292143051 -0.0004472646904754068 0.007959721014776709 -0.00048150553578550984 -0.001677357470229689 0.0019509791545835181
-0.0013175586905278104 -0.00048150553578550984 0.007271983209978897 0.025468797665928005 0.03366665917578474 0.023701844568743316 -0.00042218870585848965 0.0004947365555681647
0.03366665917578474 0.0008702284387175549 0.002576546453382388 1.7501681261825687e-05 -0.0002705458046463642 0.023701844568743316 0.002576546453382388 -0.0035600042187814585
9.20215081348629e-06 0.00011102440873787724 -0.00042218870585848965 1.7501681261825687e-05 9.20215081348629e-06 -0.0022411468454052027 -1.7143698277614995e-05 0.0004947365555681647
-0.0002705458046463642 0.00011102440873787724 -1.7143698277614995e-05 -0.002129801930450748 0.004010349653389083 -0.0016241982780432253 -0.0033912060623050174 0.00026414800825322457
-8.55601752265547e-05 -0.0016241982780432253 -0.0018942093131876288 0.0006580693387784804 -9.985701103777492e-05 5.7555704197790887e-05 -0.0033912060623050174 0.0006580693387784804
0.00036163963801301826 -3.874409458039563e-05 -3.896976773095959e-05 0.00026414800825322457 -9.985701103777492e-05 -3.874409458039563e-05 0.00018579175346502866 3.945134344317434e-05
-8.55601752265547e-05 5.7555704197790887e-05 -3.896976773095959e-05 3.945134344317434e-05 0.0001682016681246027
00000000: fc50 00db b743 a4bf 0234 ef32 0467 b23f
00000010: 5506 2fb1 6c8a 993f f8c2 92c8 6175 41bf
00000020: 7e67 0740 1f37 3d3f 0234 ef32 0467 b23f
00000030: 3c45 2a14 f821 99bf 67df 0e23 fba4 813f
00000040: 2729 98a6 6e48 23bf 570f 71f5 fc66 34bf
00000050: 5506 2fb1 6c8a 993f 67df 0e23 fba4 813f
00000060: 2d87 7d25 e65c 81bf 62e7 7fb3 8219 043f
00000070: 0c68 d20b ea73 223f f8c2 92c8 6175 41bf
00000080: 2729 98a6 6e48 23bf 62e7 7fb3 8219 043f
00000090: 3e82 43cf f78f 75bf eb67 78d6 6580 0abf
000000a0: 7e67 0740 1f37 3d3f 570f 71f5 fc66 34bf
000000b0: 0c68 d20b ea73 223f eb67 78d6 6580 0abf
000000c0: 901d 7661 84c8 75bf 8d76 10e8 eac5 8dbf
000000d0: 1434 e487 5a60 9d3f 0839 f313 93ba 88bf
000000e0: 9883 c31b 4bf2 3d3f 318a 6de2 3bfa 3c3f
000000f0: 1434 e487 5a60 9d3f 8c3a 41f1 41d4 9fbf
00000100: 78e4 3d2a 64af 923f e54f 5e8c 913a 3cbf
00000110: cdbb 1903 70b3 3fbf 0839 f313 93ba 88bf
00000120: 78e4 3d2a 64af 923f ee0d 2916 4725 85bf
00000130: 4684 4f76 d5ad 183f f641 7b5c 5255 333f
00000140: 9883 c31b 4bf2 3d3f e54f 5e8c 913a 3cbf
00000150: 4684 4f76 d5ad 183f d04e 23a8 ba92 64bf
00000160: 9696 6b41 9886 243f 318a 6de2 3bfa 3c3f
00000170: cdbb 1903 70b3 3fbf f641 7b5c 5255 333f
00000180: 9696 6b41 9886 243f 4862 7b94 9a6e 62bf
00000190: 1a22 e73a 8f24 a1bf cf1c 51fd 4d22 b9bf
000001a0: 4065 407d 0c6f a63f 5bbb 0c80 b12c 55bf
000001b0: 2e16 9dde 587b 5bbf cf1c 51fd 4d22 b9bf
000001c0: 2371 d03a c4ee ba3f c529 fa03 cf0d b0bf
000001d0: 6cc2 4541 d2ae 553f c0d7 80ea fff6 5f3f
000001e0: 4065 407d 0c6f a63f c529 fa03 cf0d b0bf
000001f0: f911 8991 99c5 a23f 5b10 df37 db4f 3dbf
00000200: 39cf 20df 3d96 55bf 5bbb 0c80 b12c 55bf
00000210: 6cc2 4541 d2ae 553f 5b10 df37 db4f 3dbf
00000220: bfcc 8cab 2f4d 803f 4047 6f87 528e 3fbf
00000230: 2e16 9dde 587b 5bbf c0d7 80ea fff6 5f3f
00000240: 39cf 20df 3d96 55bf 4047 6f87 528e 3fbf
00000250: 77d1 0521 3ac9 7d3f fba5 2c14 7e14 9a3f
00000260: 354b 40a0 c13c a13f 744a 1cdd 4b45 983f
00000270: 3705 35af 26ab 3bbf cb3a c4a9 2636 403f
00000280: 354b 40a0 c13c a13f b67c 9857 0184 4c3f
00000290: 64f7 1fd8 681b 653f 881d d960 125a f23e
000002a0: 4500 0e62 01bb 31bf 744a 1cdd 4b45 983f
000002b0: 64f7 1fd8 681b 653f 246b 2fb6 de29 6dbf
000002c0: 783f 3dfa 5d4c e33e c03b 7fd1 b81a 1d3f
000002d0: 3705 35af 26ab 3bbf 881d d960 125a f23e
000002e0: 783f 3dfa 5d4c e33e de72 028d 065c 62bf
000002f0: b1d1 96f9 f9f9 f1be cb3a c4a9 2636 403f
00000300: 4500 0e62 01bb 31bf c03b 7fd1 b81a 1d3f
00000310: b1d1 96f9 f9f9 f1be e77d 6cb4 8472 61bf
00000320: 7994 b509 286d 703f 156d 219f 619c 5abf
00000330: e30a 36e4 dfc7 6bbf 183e 870e ab4f 313f
00000340: 3b04 259e d86d 16bf 156d 219f 619c 5abf
00000350: 1da6 52c3 e308 5fbf b455 ef24 4990 453f
00000360: 7f03 0163 4a2d 1abf d81b 15f0 fe2c 0e3f
00000370: e30a 36e4 dfc7 6bbf b455 ef24 4990 453f
00000380: 485d 0f6b 4eb3 373f dc89 fdf3 2450 04bf
00000390: a4ee 0306 6f6e 04bf 183e 870e ab4f 313f
000003a0: 7f03 0163 4a2d 1abf dc89 fdf3 2450 04bf
000003b0: a733 8f02 235a 283f 03f9 c6d6 11af 043f
000003c0: 3b04 259e d86d 16bf d81b 15f0 fe2c 0e3f
000003d0: a4ee 0306 6f6e 04bf 03f9 c6d6 11af 043f
000003e0: cf21 d453 e90b 263f
