results/theta_adjoint_fkpp_sam2001_ratio0p75_useValTrue_noise120_iter10_smoothTrue_dim3_ord2_L2T_6_reg0_weightedTrue.npz (npz, 794 bytes, 2 tensors)

A_opt f8 [3, 3]
0	0x3fab9b0d9411b256	0.053917335820049914
1	0x3fa636a482d66e0e	0.04338564011706235
2	0xbfabce6fbdf58e7a	-0.05430936044538455
3	0xbf8856c2837d7168	-0.011884231221920685
4	0x3fb30eaa2781bde7	0.0744425150348814
5	0x3fa7731f9c0be3de	0.04580019740928497
6	0xbf9f8b9ab4cbc513	-0.030805985722456585
7	0xbfd17dd769fcb77b	-0.27330575323400524
8	0xbfa56356e69c7f46	-0.04177352490500978

H_opt f8 [3, 9]
0	0xbfa1b25da40fcf7c	-0.03456394794184711
1	0xbf9c0e1bc0d3cd70	-0.02739756931710019
2	0x3fbb8167ff257b50	0.1074433324733779
3	0xbf9c0e1bc0d3cd70	-0.02739756931710019
4	0xbfa8f8eaa1e95e10	-0.048774082436178756
5	0xbfb3d849748d58de	-0.07751902671347774
6	0x3fbb8167ff257b50	0.1074433324733779
7	0xbfb3d849748d58de	-0.07751902671347774
8	0xbfdd5347545d5b59	-0.45820792425859264
9	0xbf8ce39b5cb317fc	-0.014106000677553958
10	0x3fa237b4ad032f8f	0.035581251258547934
11	0xbfad20f8020b42b4	-0.0568921568389035
12	0x3fa237b4ad032f8f	0.035581251258547934
13	0x3fb9b6243b5dcf65	0.10043550919891471
14	0x3fb565c970fe49fc	0.08358439453721894
15	0xbfad20f8020b42b4	-0.0568921568389035
16	0x3fb565c970fe49fc	0.08358439453721894
17	0xbfe23ccf422f3d4a	-0.5699230473200398
18	0xbfa35a28bc4d69d1	-0.037797234521992025
19	0xbf954d0209589bb6	-0.020801574535791643
20	0x3f7d279c976a51ee	0.007117854772009198
21	0xbf954d0209589bb6	-0.020801574535791643
22	0xbfb24ac600c5bf85	-0.0714534522901414
23	0xbfbfe9600f1e91c3	-0.12465477341772328
24	0x3f7d279c976a51ee	0.007117854772009198
25	0xbfbfe9600f1e91c3	-0.12465477341772328
26	0x400363a417854df1	2.4236528241688053
