results/theta_adjoint_fkpp_sam2001_ratio0p75_noise140_dim5_True_ord2_L2T_1_reg0p01_iter10_weightedTrue.npz (npz, 1706 bytes, 2 tensors)

A_opt f8 [5, 5]
000000 fa b1 bd 0c 20 31 aa 3f 1f 67 78 8d 24 53 a1 bf
       0.05115604548959492 -0.03383745409901295
000010 10 02 13 20 fe ea 86 3f 54 11 02 d1 46 1b a4 bf
       0.011190400461033284 -0.039270604146653426
000020 f7 78 61 fa 58 00 69 3f 52 c5 3f 98 b9 84 8d 3f
       0.0030519235470328715 0.014413309057973809
000030 a2 bd a5 bb d0 3a a1 bf a1 66 75 2f b9 6a 98 3f
       -0.03365185061090449 0.023844617387431048
000040 91 2f 8e 39 d7 fc 95 3f 8d 9d 5c 17 17 d6 60 bf
       0.02147232331076016 -0.002055211162673215
000050 65 bc a4 09 f2 d3 b0 bf 6f 91 1d 29 96 75 bd 3f
       -0.06573403106152538 0.11507547858997723
000060 8b 3e 6b 1d 60 b4 b0 bf 30 47 9e 3d 10 a5 8c bf
       -0.06525231092677523 -0.013986708527031405
000070 f1 e3 20 99 67 2d 61 bf d0 1d c1 38 c9 12 b3 3f
       -0.0020968459512258277 0.07450540195087929
000080 7f 62 35 0f 1e 6f b8 bf 20 8d b0 d7 17 8a a8 3f
       -0.09544551726629356 0.04792856700830783
000090 6d 07 12 1b 47 f4 6a bf 02 b2 b2 63 f2 67 60 3f
       -0.0032903088363704287 0.0020026907128196667
0000a0 21 ec ea c1 c1 2d a5 bf bf e2 d4 a5 51 cd b4 3f
       -0.04136472217711452 0.08125791834471395
0000b0 44 b1 f4 b2 da fb a9 bf 01 8b b3 21 bb b8 ab bf
       -0.05074962076682479 -0.054143760551388816
0000c0 c6 01 ae 34 00 37 66 3f
       0.002711773301996542

H_opt f8 [5, 25]
000000 12 db 32 0f 03 f1 c6 bf 9a fe fe cb 8a a9 b6 3f
       -0.17923010103341902 0.08852450828907835
000010 ed 03 b0 89 96 cb 77 bf 45 79 cc 43 aa bd c8 3f
       -0.005809391058392938 0.1932881194160904
000020 25 0b fc 8f e4 e6 92 bf 9a fe fe cb 8a a9 b6 3f
       -0.018458911216849522 0.08852450828907835
000030 9c 4f 50 78 63 d8 b3 bf 8c 7d 70 2c 77 ad ab 3f
       -0.07752057731005241 0.054057811903699265
000040 b2 3d dd a0 64 b5 6c bf 4c bd 5b 7c a9 e4 70 bf
       -0.0035044637105909543 -0.004124319127853337
000050 ed 03 b0 89 96 cb 77 bf 8c 7d 70 2c 77 ad ab 3f
       -0.005809391058392938 0.054057811903699265
000060 55 d8 74 95 5c 99 a9 bf 12 13 6b bc 48 de 64 3f
       -0.049998181575958846 0.00254739958049511
000070 0d 8d 67 08 05 74 61 3f 45 79 cc 43 aa bd c8 3f
       0.0021305177972280654 0.1932881194160904
000080 b2 3d dd a0 64 b5 6c bf 12 13 6b bc 48 de 64 3f
       -0.0035044637105909543 0.00254739958049511
000090 11 6b e8 0f 37 a9 76 bf 15 fd a6 fd 1b 2e 39 bf
       -0.005532469831929247 -0.00038421805734496886
0000a0 25 0b fc 8f e4 e6 92 bf 4c bd 5b 7c a9 e4 70 bf
       -0.018458911216849522 -0.004124319127853337
0000b0 0d 8d 67 08 05 74 61 3f 15 fd a6 fd 1b 2e 39 bf
       0.0021305177972280654 -0.00038421805734496886
0000c0 e1 fb 69 0c 84 ce 77 bf 59 c8 7e 4b 48 29 92 3f
       -0.0058121832031465545 0.017735604865898178
0000d0 13 f7 c1 68 cd 70 9f 3f e2 b2 f3 7a ac ce ae bf
       0.03070374442949404 -0.06017054558637881
0000e0 87 0c 8a 62 2a bc bb bf 30 06 04 de c0 2a 81 3f
       -0.10833992868178842 0.008382326865560591
0000f0 13 f7 c1 68 cd 70 9f 3f f1 42 11 62 ed 78 be bf
       0.03070374442949404 -0.11903270382141408
000100 e4 c2 17 42 5b c4 a9 3f a3 2c eb d7 ee eb 55 bf
       0.050326206033678905 -0.0013379890876190979
000110 09 96 88 04 0d f1 66 bf e2 b2 f3 7a ac ce ae bf
       -0.0028004888774997333 -0.06017054558637881
000120 e4 c2 17 42 5b c4 a9 3f a9 48 86 f8 6f 46 a8 bf
       0.050326206033678905 -0.04741239460703756
000130 0f 9e 93 85 96 a4 60 3f 1d 48 1b 2b ee d3 68 3f
       0.002031606662615599 0.003030743763567946
000140 87 0c 8a 62 2a bc bb bf a3 2c eb d7 ee eb 55 bf
       -0.10833992868178842 -0.0013379890876190979
000150 0f 9e 93 85 96 a4 60 3f d7 a1 67 40 c7 0a 68 bf
       0.002031606662615599 -0.0029348270065734194
000160 92 fb 9f 5d bc 37 31 3f 30 06 04 de c0 2a 81 3f
       0.0002627215268375334 0.008382326865560591
000170 09 96 88 04 0d f1 66 bf 1d 48 1b 2b ee d3 68 3f
       -0.0028004888774997333 0.003030743763567946
000180 92 fb 9f 5d bc 37 31 3f ee 2f 9f f4 da 79 75 bf
       0.0002627215268375334 -0.005243163390286283
000190 0c b6 ce 95 b7 99 99 3f 07 11 c0 16 9d f8 bf bf
       0.025000446814081242 -0.12488729291368737
0001a0 e3 ad 77 b9 0a d6 c4 3f 4f a3 df 58 8b 80 b2 3f
       0.16278204017667894 0.07227393073811793
0001b0 f5 e7 52 47 1d 6f 8d 3f 07 11 c0 16 9d f8 bf bf
       0.014372090090876791 -0.12488729291368737
0001c0 8f 29 1c d3 7a 2f d9 3f 66 2f f1 30 46 35 bc bf
       0.3935229360219176 -0.11018789954067429
0001d0 a7 64 df 6d 01 ed 65 3f 63 d4 6b c9 0f ce 73 3f
       0.0026764896310678857 0.0048351875945985305
0001e0 e3 ad 77 b9 0a d6 c4 3f 66 2f f1 30 46 35 bc bf
       0.16278204017667894 -0.11018789954067429
0001f0 f2 a4 27 83 32 31 bf 3f 07 8a a2 ef 5c 74 6d bf
       0.12184444143317189 -0.0035955252797788026
000200 d0 8b 4c 60 5d 48 77 bf 4f a3 df 58 8b 80 b2 3f
       -0.005684246779114013 0.07227393073811793
000210 a7 64 df 6d 01 ed 65 3f 07 8a a2 ef 5c 74 6d bf
       0.0026764896310678857 -0.0035955252797788026
000220 ce 28 3f f8 b0 b1 88 3f 84 e1 48 00 7d 42 44 bf
       0.012057669235123216 -0.0006182775837891151
000230 f5 e7 52 47 1d 6f 8d 3f 63 d4 6b c9 0f ce 73 3f
       0.014372090090876791 0.0048351875945985305
000240 d0 8b 4c 60 5d 48 77 bf 84 e1 48 00 7d 42 44 bf
       -0.005684246779114013 -0.0006182775837891151
000250 5b a0 d8 59 a7 97 90 3f 1b 17 f0 f1 1c b4 c1 bf
       0.016203513010765707 -0.1383091145836993
000260 30 e6 d0 ba 8a 85 c3 3f 4c 14 c0 e2 79 35 bc bf
       0.15251287576556782 -0.11019098077675088
000270 c0 ae 31 7f 6c 26 8d 3f 3c 94 3e 9f 57 85 8c bf
       0.01423344386258607 -0.01392620520329945
000280 30 e6 d0 ba 8a 85 c3 3f da 23 3a f2 54 86 d3 bf
       0.15251287576556782 -0.30507396368971984
000290 1c f4 b9 6f d5 aa b9 3f e4 84 a2 af 2b bd 64 bf
       0.10026296594328737 -0.002531609844553461
0002a0 15 b2 41 21 18 4b 74 bf 4c 14 c0 e2 79 35 bc bf
       -0.004954427964645199 -0.11019098077675088
0002b0 1c f4 b9 6f d5 aa b9 3f fe 58 77 42 94 dd b9 bf
       0.10026296594328737 -0.10103727934560777
0002c0 0c c8 44 14 43 65 66 3f 02 cd bb 23 5e fa 73 3f
       0.0027338323726775523 0.004877441151381891
0002d0 c0 ae 31 7f 6c 26 8d 3f e4 84 a2 af 2b bd 64 bf
       0.01423344386258607 -0.002531609844553461
0002e0 0c c8 44 14 43 65 66 3f a0 ac 8a c1 89 ff 86 bf
       0.0027338323726775523 -0.011229587763713689
0002f0 7f 23 10 6a 0e aa 3a 3f 3c 94 3e 9f 57 85 8c bf
       0.000406864661329602 -0.01392620520329945
000300 15 b2 41 21 18 4b 74 bf 02 cd bb 23 5e fa 73 3f
       -0.004954427964645199 0.004877441151381891
000310 7f 23 10 6a 0e aa 3a 3f b4 16 8b 06 66 24 8c bf
       0.000406864661329602 -0.013741299700437672
000320 56 e6 e5 3c 93 bb a3 3f e7 56 c7 0a 4a 0a b1 bf
       0.03854045980820035 -0.066563251143943
000330 dc 9c ad c5 dd 22 c1 3f cc 32 02 06 3e 62 d1 3f
       0.13387653496031404 0.27162123286033757
000340 ec 9a ef 8b da 4d 88 bf e7 56 c7 0a 4a 0a b1 bf
       -0.011867244143969079 -0.066563251143943
000350 28 a5 70 c6 22 e4 d2 3f 4c b4 c9 d8 75 10 b3 bf
       0.29517430666835986 -0.07446991484330673
000360 88 e0 db c8 ec a5 53 3f 3b 7f ac 61 f3 95 63 3f
       0.0011992275571497697 0.0023908380075140768
000370 dc 9c ad c5 dd 22 c1 3f 4c b4 c9 d8 75 10 b3 bf
       0.13387653496031404 -0.07446991484330673
000380 d6 10 43 b9 97 d7 b5 3f 60 37 df 03 e6 ca 68 bf
       0.08532093308446362 -0.0030264370425134163
000390 d5 52 19 1d b5 12 73 bf cc 32 02 06 3e 62 d1 3f
       -0.004656512713684354 0.27162123286033757
0003a0 88 e0 db c8 ec a5 53 3f 60 37 df 03 e6 ca 68 bf
       0.0011992275571497697 -0.0030264370425134163
0003b0 39 f4 b4 23 3c e1 7d 3f e5 36 47 80 75 1d 48 bf
       0.007294878883212391 -0.0007359336601042403
0003c0 ec 9a ef 8b da 4d 88 bf 3b 7f ac 61 f3 95 63 3f
       -0.011867244143969079 0.0023908380075140768
0003d0 d5 52 19 1d b5 12 73 bf e5 36 47 80 75 1d 48 bf
       -0.004656512713684354 -0.0007359336601042403
0003e0 d6 f5 dd 4f 42 13 89 3f
       0.012243764936779405
