results/theta_adjoint_burgers_sam10000_ratio0p5_noise40_dim4_True_ord2_L2T_1_reg0p1_iter10_weightedTrue.npz (npz, 1146 bytes, 2 tensors)

A_opt f8 [4, 4]
-0.0405393807811854 0.01945325839094546 -0.016077244539588646 -2.1310864968214388e-05 0.028664393954750032 -0.01669453799436905 0.013345770519002037 1.6920211862007783e-05
-0.028219650366393276 0.00027159367523973927 -0.016085673681705503 -1.7433380061719906e-05 0.020270324514366587 -0.007434225053562471 0.009417798904966235 1.1595609090832223e-05
00000000: 2781 4fe5 93c1 a4bf fde6 5b12 8eeb 933f
00000010: f180 079e 8d76 90bf 14cb 497d 9758 f6be
00000020: 5699 61ea 325a 9d3f c3a0 d47a 5f18 91bf
00000030: dd2e 5aff 0655 8b3f a2c4 fc1a fcbd f13e
00000040: 9c7d b6ad 9ce5 9cbf f9dd f4f3 95cc 313f
00000050: 1395 9649 c378 90bf 1fc5 6dc1 bc47 f2be
00000060: 195b 7973 bec1 943f 5a54 9e97 5973 7ebf
00000070: 1a88 6092 a349 833f 3d36 d960 5851 e83e

H_opt f8 [4, 16]
-0.037119946887055215 0.14063857343771982 -0.15921232908350072 -0.00046095055196790217 0.14063857343771982 -0.2079156071870429 -0.0211858334146068 -0.0015276891090442249
-0.15921232908350072 -0.0211858334146068 -0.0018902993490433754 -0.00024268773453604617 -0.00046095055196790217 -0.0015276891090442249 -0.00024268773453604617 -0.0003155947171554902
-0.07300567609279389 -0.12347608237231812 0.13298650857299837 0.0003662213736138243 -0.12347608237231812 0.16784333918428962 0.01746253471076342 0.0012695705480141582
0.13298650857299837 0.01746253471076342 0.0013904567461142303 0.00020071729479450532 0.0003662213736138243 0.0012695705480141582 0.00020071729479450532 0.00024527535750174504
0.0014888053977562125 -0.047252533096978286 -0.16160934131111182 -0.0003653492393487875 -0.047252533096978286 -0.2577497943038335 -0.025721312983137793 -0.0014921579219007535
-0.16160934131111182 -0.025721312983137793 -0.003508771879308175 -0.00030446992586462474 -0.0003653492393487875 -0.0014921579219007535 -0.00030446992586462474 -0.00023329694999842205
-0.004890542456343939 -0.041867711900426395 0.09395144403180754 0.00024687107774059853 -0.041867711900426395 0.13149603497779322 0.013392844284268138 0.0008872763852293968
0.09395144403180754 0.013392844284268138 0.001419071231598063 0.00015574075122629043 0.00024687107774059853 0.0008872763852293968 0.00015574075122629043 0.00016463251120226314
00000000: 4f7d d1bb 6201 a3bf 094d bcdc 7100 c23f
00000010: d54d 44d1 1161 c4bf e6ed b78b 7735 3ebf
00000020: 094d bcdc 7100 c23f 6721 9986 fa9c cabf
00000030: 26f1 9d36 bdb1 95bf 2556 c1b0 9707 59bf
00000040: d54d 44d1 1161 c4bf 26f1 9d36 bdb1 95bf
00000050: bf09 9078 7df8 5ebf adfd 14c4 3fcf 2fbf
00000060: e6ed b78b 7735 3ebf 2556 c1b0 9707 59bf
00000070: adfd 14c4 3fcf 2fbf 0159 2dfd ccae 34bf
00000080: dbac 3dff 7fb0 b2bf 4997 a0e7 209c bfbf
00000090: 16ac 90b0 b305 c13f 49e5 a0d2 2c00 383f
000000a0: 4997 a0e7 209c bfbf 54f0 52fa e37b c53f
000000b0: 9fb4 f3dd b2e1 913f 7ab4 f4fe f6cc 543f
000000c0: 16ac 90b0 b305 c13f 9fb4 f3dd b2e1 913f
000000d0: 5c6b 1190 ffc7 563f 246b 0b6f f44e 2a3f
000000e0: 49e5 a0d2 2c00 383f 7ab4 f4fe f6cc 543f
000000f0: 246b 0b6f f44e 2a3f 6380 94a3 0913 303f
00000100: 3f08 959f 8064 583f eefe 9be8 7b31 a8bf
00000110: d464 d469 9daf c4bf b2f4 dc08 8bf1 37bf
00000120: eefe 9be8 7b31 a8bf fa7b 45fe f87e d0bf
00000130: d180 4a18 b056 9abf abe8 665e 9072 58bf
00000140: d464 d469 9daf c4bf d180 4a18 b056 9abf
00000150: be68 108f 6dbe 6cbf 25d7 cb5f 28f4 33bf
00000160: b2f4 dc08 8bf1 37bf abe8 665e 9072 58bf
00000170: 25d7 cb5f 28f4 33bf 23f2 7e8a 2594 2ebf
00000180: 271e 8efe 1a08 74bf f3c9 bd4a af6f a5bf
00000190: 8751 87ab 330d b83f cc91 8934 cf2d 303f
000001a0: f3c9 bd4a af6f a5bf fa42 e4b0 dcd4 c03f
000001b0: 885e 9c21 b56d 8b3f 042e 4e87 0313 4d3f
000001c0: 8751 87ab 330d b83f 885e 9c21 b56d 8b3f
000001d0: e934 f221 0440 573f eda3 c8dd ca69 243f
000001e0: cc91 8934 cf2d 303f 042e 4e87 0313 4d3f
000001f0: eda3 c8dd ca69 243f 9af2 c080 2694 253f
