results/theta_opinf_burgers_sam1000_ratio0p5_noise40_dim5_True_ord6_L2T_2_reg0p1_iter10_weightedTrue.npz (npz, 1714 bytes, 2 tensors)

A_opinf f8 [5, 5]
00000000: 5b83 4397 3be5 aebf 7743 3306 453e 90bf
00000010: 796d 7a3d 7948 a0bf 0dc7 367f da1b 353f
00000020: 46d2 abcd 4946 003f 23e3 0de3 4f3f a3bf
00000030: 2514 8821 f39d 98bf 00fb ab46 c5c7 92bf
00000040: cbf6 3fb3 b497 263f 95f2 30c4 1432 043f
00000050: fef8 2f01 d423 8bbf 825a 6d75 5f3b 553f
00000060: ba2d 7fd6 1702 82bf b1ad d0dc d5c5 183f
00000070: 9538 8512 215c 823e 133a d3a7 620a ae3f
00000080: 8db1 b22a 211e 733f df4f 3872 dfb2 a23f
00000090: eaef d0ef 501d 39bf a935 2389 d544 efbe
000000a0: bf8b ffb1 0274 8fbf 10c4 20ff 70c8 6fbf
000000b0: a54c 937c e1c5 80bf 5769 471d 2fcc 153f
000000c0: 7b7b 9735 5118 e03e
-0.06034265729409213 -0.01586253977149307 -0.03180292964426718 0.00032209476850218814 3.1041266728513764e-05 -0.037592407671530624 -0.024040030404666752 -0.018340189398254658
0.0001723678666393696 3.8520106067062614e-05 -0.013251930509792672 0.0012958938802591084 -0.008793054803297607 9.450071156951488e-05 1.3679176303700063e-07 0.05867298411032009
0.004667405660410029 0.036520941441409376 -0.0003832171058240063 -1.4910165451099645e-05 -0.015357991272997638 -0.0038797575916977925 -0.00818992768691935 8.315122187899558e-05
7.67468889056681e-06

H_opinf f8 [5, 25]
00000000: 9b57 c060 3b0e a53f 0e14 700d a231 b03f
00000010: 3401 de0d 0a60 d43f 6106 1500 2d8d 66bf
00000020: aff3 8a10 36a3 58bf 0e14 700d a231 b03f
00000030: 4003 07be ba4c db3f 5814 cdfa a096 a7bf
00000040: 9f28 f931 bdda 413f d3cf 690c 34db 5e3f
00000050: 3401 de0d 0a60 d43f 5814 cdfa a096 a7bf
00000060: 9965 f9a0 7990 743f f7b9 6e88 fa77 1a3f
00000070: eec3 72ee c1af 1fbf 6106 1500 2d8d 66bf
00000080: 9f28 f931 bdda 413f f7b9 6e88 fa77 1a3f
00000090: efe3 7009 4f9c 5b3f 2dcd d9e6 b49b 2cbf
000000a0: aff3 8a10 36a3 58bf d3cf 690c 34db 5e3f
000000b0: eec3 72ee c1af 1fbf 2dcd d9e6 b49b 2cbf
000000c0: a481 bdad 0616 5d3f b838 74ee 2048 b3bf
000000d0: 787d 003a 65f0 c63f 9de7 9168 d054 c73f
000000e0: 32f2 f581 d216 56bf b643 238f 0ed7 53bf
000000f0: 787d 003a 65f0 c63f e612 89d7 5af5 c93f
00000100: 45b9 439d fb67 97bf f0ae 39e1 8e9d 2e3f
00000110: fed6 cd7e 0435 523f 9de7 9168 d054 c73f
00000120: 45b9 439d fb67 97bf a672 f230 07af 543f
00000130: dc7c ee89 5234 133f f63a 41e9 2eb7 00bf
00000140: 32f2 f581 d216 56bf f0ae 39e1 8e9d 2e3f
00000150: dc7c ee89 5234 133f 1be6 afab 5e57 533f
00000160: 9bc7 d1a8 d68e 1abf b643 238f 0ed7 53bf
00000170: fed6 cd7e 0435 523f f63a 41e9 2eb7 00bf
00000180: 9bc7 d1a8 d68e 1abf 3d85 4930 341a 533f
00000190: e985 1615 7263 723f f53a 8209 91b4 a2bf
000001a0: 8f4c ca63 7bac b63f aecc 3348 4524 4cbf
000001b0: fd6d c4fb c003 32bf f53a 8209 91b4 a2bf
000001c0: ae72 74ea 3400 c13f 0d20 9e96 62f7 8cbf
000001d0: 2d23 e118 e9a3 273f 4f98 e5f6 01ca 403f
000001e0: 8f4c ca63 7bac b63f 0d20 9e96 62f7 8cbf
000001f0: 5004 e2e2 40d5 5f3f 2fdf 88cc a941 f73e
00000200: b78b 9714 7e0c 09bf aecc 3348 4524 4cbf
00000210: 2d23 e118 e9a3 273f 2fdf 88cc a941 f73e
00000220: a836 45d3 e3c8 373f 4d45 b038 1544 12bf
00000230: fd6d c4fb c003 32bf 4f98 e5f6 01ca 403f
00000240: b78b 9714 7e0c 09bf 4d45 b038 1544 12bf
00000250: febc 0cf5 5810 3b3f ea7d b979 5822 8f3f
00000260: 6c3f ab2d b789 ac3f de44 2a3e f57b d7bf
00000270: 5ac9 c5fd f4db 6b3f 94c3 0763 b99f 563f
00000280: 6c3f ab2d b789 ac3f 9d39 3103 ffc1 e0bf
00000290: 935c 9e9a 7bcc ac3f f95f 9a39 03ca 46bf
000002a0: f907 c120 8590 61bf de44 2a3e f57b d7bf
000002b0: 935c 9e9a 7bcc ac3f bb87 7d2f 19bf 7cbf
000002c0: 7dcd b06e d4ce 1abf 3e31 56c3 c0ab 263f
000002d0: 5ac9 c5fd f4db 6b3f f95f 9a39 03ca 46bf
000002e0: 7dcd b06e d4ce 1abf bc7a 8bf5 7849 5bbf
000002f0: 7e52 2bbe cfe1 313f 94c3 0763 b99f 563f
00000300: f907 c120 8590 61bf 3e31 56c3 c0ab 263f
00000310: 7e52 2bbe cfe1 313f 6211 c165 98f5 5dbf
00000320: 78d7 3d0b 39f4 823f bd4e d032 5663 8d3f
00000330: b132 4caf 53fe b43f 661c 80e0 c159 47bf
00000340: 456b e14a a007 39bf bd4e d032 5663 8d3f
00000350: 7dc4 6eab a83f bc3f c4ed ba89 c966 88bf
00000360: 9d96 2897 6387 223f 093d 10b1 4ec4 3f3f
00000370: b132 4caf 53fe b43f c4ed ba89 c966 88bf
00000380: 8db3 f18f ef7b 553f f4c2 5c1b 310c fb3e
00000390: 0ec6 d0c1 3e97 00bf 661c 80e0 c159 47bf
000003a0: 9d96 2897 6387 223f f4c2 5c1b 310c fb3e
000003b0: 856a 21f8 fc28 3c3f 36f4 80c3 26a5 0dbf
000003c0: 456b e14a a007 39bf 093d 10b1 4ec4 3f3f
000003d0: 0ec6 d0c1 3e97 00bf 36f4 80c3 26a5 0dbf
000003e0: b39f 4d61 33bd 3d3f
0.04112420612379638 0.06325733974524914 0.3183617721006329 -0.00275286473393592 -0.00150375632999487 0.06325733974524914 0.4265581947075141 -0.04607108174835933
0.0005448745541312311 0.0018833168302565442 0.3183617721006329 -0.04607108174835933 0.005020594704171621 0.00010096995002471092 -0.0001208746067387215 -0.00275286473393592
0.0005448745541312311 0.00010096995002471092 0.0016852161259193162 -0.00021826346658180545 -0.00150375632999487 0.0018833168302565442 -0.0001208746067387215 -0.00021826346658180545
0.0017752709599890637 -0.07531934568052889 0.1792112858974908 0.18227582078889962 -0.0013482146967752737 -0.0012109415225049886 0.1792112858974908 0.20280013584319717
-0.022857600663820383 0.00023357743394868775 0.0011112731837931706 0.18227582078889962 -0.022857600663820383 0.0012624330736691696 7.325891281916318e-05 -3.188239966843934e-05
-0.0013482146967752737 0.00023357743394868775 7.325891281916318e-05 0.0011804985540478988 -0.00010131058862031113 -0.0012109415225049886 0.0011112731837931706 -3.188239966843934e-05
-0.00010131058862031113 0.001165915456248292 0.0044893699972887524 -0.036533863459331 0.08856936632428102 -0.0008588159838879472 -0.00027488194952393613 -0.036533863459331
0.1328188080596155 -0.014143724652754508 0.0001803609888517908 0.0005123624412533087 0.08856936632428102 -0.014143724652754508 0.0019429334311385112 2.2179124046866463e-05
-4.7776792211149726e-05 -0.0008588159838879472 0.0001803609888517908 2.2179124046866463e-05 0.0003629261220979654 -6.967906499279649e-05 -0.00027488194952393613 0.0005123624412533087
-4.7776792211149726e-05 -6.967906499279649e-05 0.0004129616909720051 0.015202227797259622 0.05573818619234214 -0.3669407946664033 0.0034007821070016044 0.001380854646523687
0.05573818619234214 -0.5236811697339366 0.056247580170002774 -0.0006954684970024153 -0.0021441078334030164 -0.3669407946664033 0.056247580170002774 -0.007018183117766637
-0.0001022641333044329 0.00017296531738642847 0.0034007821070016044 -0.0006954684970024153 -0.0001022641333044329 -0.0016654664270202976 0.0002728588280381041 0.001380854646523687
-0.0021441078334030164 0.00017296531738642847 0.0002728588280381041 -0.0018285740143407438 0.009254880576672994 0.014349625993453125 0.08200572042205569 -0.0007126042046373792
-0.0003819242800823695 0.014349625993453125 0.11034635720604231 -0.01191480113572297 0.00014136400894064908 0.00048472329314193423 0.08200572042205569 -0.01191480113572297
0.0013112868762405778 2.579462462576599e-05 -3.164444226689762e-05 -0.0007126042046373792 0.00014136400894064908 2.579462462576599e-05 0.00042968917853662025 -5.65435843218127e-05
-0.0003819242800823695 0.00048472329314193423 -3.164444226689762e-05 -5.65435843218127e-05 0.00045378212353463647
